snapshots/best_model.pth (torch, 61026 bytes, 48 tensors)

input.weight f4 [16, 3, 1, 1]
0	0xbdc4048d	-0.095711805
1	0x3ee3eb35	0.44515386
2	0x3e8083de	0.25100607
3	0xbe9c7d5f	-0.305644
4	0xbf09842d	-0.5371731
5	0x3e856950	0.2605691
6	0xbe1d5139	-0.15363015
7	0xbf190451	-0.5977221
8	0x3dd391df	0.10330557
9	0x3c91a926	0.017780852
10	0xbe68c97b	-0.22733109
11	0xbdc5ca5d	-0.09657738
12	0x3db413ef	0.087928645
13	0xbe4edd0f	-0.20201515
14	0xbe1d3d09	-0.15355314
15	0xbc522c92	-0.012828009
16	0x3eadaf17	0.33922645
17	0x3d9f4861	0.07777477
18	0x3e01dd5a	0.12682095
19	0xbd59be97	-0.053160276
20	0x3e80e823	0.25177106
21	0xbf0074bf	-0.5017814
22	0x3e90df36	0.28295296
23	0x3e09811c	0.13428158
24	0x3dcfffe0	0.10156226
25	0x3e15b333	0.1461914
26	0x3d5ef441	0.054432157
27	0x3df9dae9	0.12199957
28	0x3e589005	0.21148689
29	0x3ed025d8	0.40653872
30	0xbd973ffa	-0.073852494
31	0xbe478836	-0.19485554
32	0xbe9d6d68	-0.30747533
33	0x3edc4b10	0.43026018
34	0x3f0ba32f	0.54545873
35	0x3e1c2d90	0.15251756
36	0xbd0a9646	-0.03383472
37	0x3e553bb3	0.20823555
38	0x3f19f922	0.6014577
39	0xbe70bba6	-0.23509082
40	0x3f1f9289	0.6233297
41	0x3e0e8a2c	0.13919896
42	0xbe738db2	-0.23784521
43	0x3f2acf20	0.667223
44	0xbddcffe2	-0.10790993
45	0x3ee9fed1	0.45702222
46	0xbf0daba7	-0.55340046
47	0xbedd1f8d	-0.43188134

bn_input.weight f4 [16]
0	0x3f6d9d87	0.9281849
1	0x3f6035a3	0.87581843
2	0x3f5e1505	0.86750823
3	0x3f6a2ee1	0.9147778
4	0x3f7f8d95	0.9982541
5	0x3f6ba6dc	0.9205148
6	0x3f60e730	0.87852764
7	0x3f5c4a03	0.8605043
8	0x3f695f2c	0.91160846
9	0x3f6ff5f0	0.93734646
10	0x3f6d8011	0.9277354
11	0x3f644670	0.8916998
12	0x3f54c1ed	0.8310841
13	0x3f757d4c	0.9589431
14	0x3f627093	0.88453025
15	0x3f48a151	0.7837115

bn_input.bias f4 [16]
0	0x3dab44fc	0.08362767
1	0x3df5cce5	0.12001971
2	0x3e057382	0.13032344
3	0x3d847700	0.0646801
4	0xbc493426	-0.0122805
5	0x3d81d65b	0.06339713
6	0x3df8826b	0.1213425
7	0x3e30f282	0.1728001
8	0x3c9c3d9f	0.019072352
9	0x3d9a56b5	0.07536069
10	0x3d92aac0	0.07161474
11	0x3d817364	0.06320837
12	0x3e3bbbee	0.18333408
13	0x3ce55e2c	0.027999006
14	0x3d737051	0.059433285
15	0x3e59fce0	0.2128787

bn_input.running_mean f4 [16]
0	0x3e986c76	0.2977025
1	0xbe3af638	-0.18257987
2	0xbe80cb3e	-0.2515506
3	0xbe133740	-0.14376545
4	0xbe137976	-0.14401802
5	0x3e3e6b12	0.18595532
6	0x3dfcf186	0.123507544
7	0x3da6c43b	0.08142897
8	0x3de809b5	0.113299765
9	0x3ea0f580	0.31437302
10	0xbe7f6c03	-0.24943547
11	0x3ed1d8b4	0.40985644
12	0x3ebe60bc	0.37183177
13	0x3e966b5b	0.2937878
14	0x3e485d0d	0.19566746
15	0xbeb51ca3	-0.3537341

bn_input.running_var f4 [16]
0	0x3cc81974	0.0244262
1	0x3c8a0a54	0.016850628
2	0x3cbf1435	0.023325065
3	0x3bc36205	0.0059626126
4	0x3bb0f027	0.005399722
5	0x3c295e73	0.01033746
6	0x3b97eca3	0.0046363636
7	0x3b2bdc5c	0.0026223874
8	0x3b925772	0.0044659907
9	0x3cecb314	0.028893985
10	0x3c93ba9e	0.018033322
11	0x3d79293c	0.06083034
12	0x3d15b027	0.036544945
13	0x3cbf095c	0.023319893
14	0x3c363431	0.011120842
15	0x3cf7a18e	0.030228402

block1.dw.weight f4 [16, 1, 3, 3]
0	0x3d1bcc83	0.038036834
1	0x3e1186c4	0.14211565
2	0xbe128458	-0.14308298
3	0xbe980aa8	-0.2969563
4	0xbee9f52d	-0.45694867
5	0xbc20fc4d	-0.009825778
6	0x3d5e44df	0.0542649
7	0xbd518565	-0.051152606
8	0x3ba8ee67	0.005155373
9	0x3ba1d9d8	0.004939299
10	0x3dc578bd	0.096421696
11	0xbdc804be	-0.097665295
12	0x3d2edbd2	0.042690106
13	0x3ecd8434	0.40139925
14	0x3df633fe	0.120216355
15	0xbd4827dd	-0.04886614
16	0x3e179a58	0.14804971
17	0xbd94989a	-0.07255669
18	0xbd9e4eb6	-0.07729857
19	0xbed211fe	-0.41029352
20	0x3d896811	0.06709302
21	0xbdfd1ce9	-0.1235903
22	0xbe61cc8f	-0.22050689
23	0xbdf14809	-0.11781318
24	0x3e16efd5	0.14739926
25	0x3a7f0902	0.00097288203
26	0x3d518fd4	0.051162556
27	0xbd10b738	-0.03533098
28	0x3cc101f3	0.0235605
29	0x3e0b3627	0.13594876
30	0x3e1b81e7	0.15186273
31	0x3df3f52c	0.11911997
32	0xbe06effb	-0.13177483
33	0x3b52b0fe	0.0032148953
34	0x3e9852a1	0.2975054
35	0x3d9f9708	0.07792479
36	0xbc3eee5a	-0.011653507
37	0xbe9f869c	-0.31157386
38	0x3d16b974	0.036797956
39	0x3e01eec1	0.12688734
40	0xbd0babc9	-0.034099374
41	0xbd1c5072	-0.038162656
42	0xbe6d6297	-0.2318214
43	0x3e13c538	0.14430702
44	0xbea2c8e8	-0.31793904
45	0x3ead4f19	0.3384941
46	0x3e628916	0.22122607
47	0xbe506790	-0.20352006
48	0xbdf0e965	-0.117632665
49	0x3e6c0431	0.23048474
50	0x3e8d7698	0.27629542
51	0xbd907a86	-0.070546195
52	0x3e947165	0.28992763
53	0x3cd78ce5	0.026312301
54	0x3e44f440	0.19233799
55	0x3d191c82	0.037380703
56	0xbe7c89a3	-0.24661879
57	0xbe9baf21	-0.3040705
58	0xbedc083d	-0.42975035
59	0x3d848836	0.06471293
60	0xbe2bb25e	-0.1676726
61	0xbdb772a3	-0.08957412
62	0xbe1cf3e0	-0.15327406
63	0x3de1ff06	0.1103497
64	0xbda6b28f	-0.08139526
65	0x3da996af	0.08280694
66	0x3e42c15e	0.19019076
67	0x3e941893	0.28925
68	0xbd64bbea	-0.05584327
69	0xbd2fc0fa	-0.042908646
70	0x3ef9da23	0.48799238
71	0xbc4da88f	-0.0125523945
72	0x3e47a8e9	0.19498028
73	0x3d344871	0.044014398
74	0xbe0537ad	-0.1300952
75	0xbdfe1240	-0.12405825
76	0x3f086019	0.53271633
77	0xbd9356e2	-0.07194306
78	0x3ca8bf63	0.020599073
79	0x3d8dec83	0.06929877
80	0x3db5817c	0.08862588
81	0xba077f1e	-0.0005168783
82	0xbd9ce29b	-0.07660409
83	0x3e684874	0.22683889
84	0x3eb7ccee	0.35898536
85	0x3e7f1e38	0.24913871
86	0x3ddc57a3	0.10758903
87	0xbe5ba71e	-0.21450469
88	0x3dbb9f71	0.091612704
89	0xbdb17ae8	-0.08666021
90	0x3e355a3c	0.17710203
91	0xbeaf1b5a	-0.34200555
92	0x3e4774d3	0.19478159
93	0xbda619cb	-0.08110388
94	0x3efc8f47	0.49328062
95	0x3e515ba8	0.2044512
96	0xbc4ebc65	-0.012618159
97	0x3e10c7e7	0.14138757
98	0x3e27fd9e	0.16405341
99	0xbe57baaf	-0.21067308
100	0x3ec1e10b	0.37867007
101	0x3d168602	0.036748894
102	0x3ea31cb9	0.3185785
103	0x3e85ae4b	0.26109537
104	0xbdd58fc2	-0.1042781
105	0xbda3970d	-0.07987795
106	0x3cbb2d7b	0.022848835
107	0xbca6a4ff	-0.020342348
108	0x3e2398a9	0.15976204
109	0x3c827974	0.015927054
110	0xbe840600	-0.25785828
111	0xbe467648	-0.19381058
112	0xbe08f8bd	-0.13376136
113	0xbda6d8c4	-0.081468135
114	0x3d547056	0.051864944
115	0x3e01a093	0.1265891
116	0xbea05e04	-0.31321728
117	0x3e3080c9	0.17236628
118	0x3e6e8272	0.23291948
119	0x3e457740	0.19283772
120	0x3e94ec60	0.2908659
121	0xbde8aea7	-0.11361437
122	0x3d129637	0.035787787
123	0x3d0df076	0.03465315
124	0xbbbf13fa	-0.005831239
125	0x3e851722	0.2599421
126	0x3e82c52b	0.25541052
127	0x3c44187b	0.011968727
128	0x3e09b6d1	0.13448645
129	0x3d802494	0.06256977
130	0x3e89c31b	0.26906666
131	0x3df68003	0.12036135
132	0xbdd59c1d	-0.10430167
133	0x3d9152a6	0.07095842
134	0xbd3ea688	-0.046545535
135	0x3d04415b	0.03228889
136	0x3e69aad5	0.22819073
137	0xbd9f4ec1	-0.07778693
138	0x3e15de99	0.14635696
139	0xbef0304f	-0.46911857
140	0xbe66a96f	-0.22525571
141	0xbd7509ab	-0.059823673
142	0xbdd97bdf	-0.1061933
143	0xbe648c47	-0.22319137

block1.bn1.weight f4 [16]
0	0x3f8e8ca9	1.1136676
1	0x3f701da2	0.93795216
2	0x3f823a79	1.0174094
3	0x3f811072	1.0083144
4	0x3f6f604a	0.935063
5	0x3f63f080	0.8903885
6	0x3f7ba125	0.9829276
7	0x3f58ac52	0.8463794
8	0x3f79088e	0.9727868
9	0x3f66b08a	0.9011313
10	0x3f7d1891	0.9886561
11	0x3f5d2dcc	0.86398005
12	0x3f713c5f	0.94232744
13	0x3f7ff183	0.9997789
14	0x3f6e6bf8	0.931335
15	0x3f3e3be8	0.7431016

block1.bn1.bias f4 [16]
0	0xbd4a86c9	-0.049444947
1	0xbc35939f	-0.011082559
2	0x3e111333	0.1416748
3	0xbd1fe653	-0.039038014
4	0x3ce50162	0.027954761
5	0xbd7eb5e6	-0.06218519
6	0xbc120e01	-0.008914472
7	0xbde1a582	-0.11017896
8	0xbc6fa93b	-0.01462775
9	0xbe0e419a	-0.13892213
10	0x3d4a7133	0.04942436
11	0xbd4d82f8	-0.05017373
12	0x3d7f2d64	0.062299147
13	0x3cf83d98	0.030302808
14	0xbb706ea1	-0.0036687034
15	0x3ceb6e96	0.028739255

block1.bn1.running_mean f4 [16]
0	0xbe093f43	-0.13403039
1	0x3de846c1	0.1134162
2	0xbe0708da	-0.1318697
3	0x3de1f27d	0.11032579
4	0xbdcf1e2a	-0.10113175
5	0x3e2f7515	0.17134507
6	0xbe563d1d	-0.2092175
7	0x3e50f580	0.20406151
8	0x3dbc9a58	0.09209126
9	0x3df8818c	0.12134084
10	0x3e2ca6f2	0.1686056
11	0x3dcb586c	0.099289745
12	0xbe07a983	-0.13248257
13	0x3e3b2e1c	0.18279308
14	0x3dfdd764	0.12394598
15	0xbe2702b8	-0.16309631

block1.bn1.running_var f4 [16]
0	0x3e18ab27	0.1490904
1	0x3d848212	0.064701214
2	0x3dbbb0e2	0.09164597
3	0x3dabed5f	0.08394884
4	0x3dbb9f1e	0.091612086
5	0x3e89cb53	0.26912937
6	0x3ea71955	0.32636514
7	0x3eb51dce	0.35374302
8	0x3de40ffc	0.11135861
9	0x3e065360	0.13117743
10	0x3e3b3a4d	0.18283959
11	0x3ddc5fd1	0.10760463
12	0x3dcab58f	0.09897911
13	0x3ea6957d	0.32535926
14	0x3e13ddfb	0.14440148
15	0x3de4ebb8	0.11177772

block1.pw.weight f4 [32, 16, 1, 1]
0	0xbde75dd8	-0.11297196
1	0x3e3d9c28	0.185166
2	0xbdcae1bf	-0.09906339
3	0x3e9446c8	0.28960252
4	0xbd72663e	-0.059179537
5	0x3c261b41	0.010138334
6	0x3e49b5d0	0.19698262
7	0xbe4440cd	-0.19165345
8	0xbe074211	-0.13208796
9	0xbe266e8a	-0.16253105
10	0x3d780e91	0.060560767
11	0x3e395020	0.18096972
12	0xbe1138e1	-0.14181854
13	0x3d216daa	0.039411224
14	0x3d1c4aac	0.03815715
15	0x3c66c917	0.0140860295
16	0xbe561983	-0.2090817
17	0xbe4561da	-0.19275609
18	0x3e50540f	0.20344566
19	0xbd894755	-0.06703059
20	0xbded3e2e	-0.115841255
21	0x3d820c3f	0.06349992
22	0x3ca35c48	0.019941464
23	0x3e7cb87d	0.24679752
24	0xbe60d8d2	-0.2195771
25	0xbe2c9abf	-0.16855906
26	0xbdaee9f8	-0.0854072
27	0xbe740761	-0.2383094
28	0xbe2ff9b0	-0.17185092
29	0xbe90df0e	-0.28295177
30	0xbc002985	-0.007822399
31	0xbdb6ce83	-0.08926108
32	0xbe4c69bf	-0.19962214
33	0x3dda7c52	0.106682435
34	0x3e49c8ec	0.19705552
35	0x3c8956a8	0.016764954
36	0xbdd6ef45	-0.10494856
37	0xbe1cf019	-0.15325965
38	0xbe5ea4fd	-0.21742626
39	0x3c4875e2	0.012235137
40	0x3dbacf6a	0.09121592
41	0x3d014d45	0.03156783
42	0x3d5c9443	0.05385233
43	0xbc2a2e5f	-0.010387032
44	0xbddb385e	-0.107041106
45	0x3e9aa35f	0.30202767
46	0x3c673662	0.014112087
47	0xbda4ed5a	-0.08053084
48	0xbe372d18	-0.17888296
49	0xbe5a77cb	-0.2133476
50	0x3e2cc23d	0.16870971
51	0xbe0570e8	-0.13031352
52	0xbe15c8b2	-0.1462734
53	0xbcb03482	-0.021509413
54	0xbe6d9062	-0.23199609
55	0x3db2c01a	0.08728047
56	0x3d7ff2fb	0.062487584
57	0x3e349890	0.17636323
58	0xbdb270cb	-0.0871292
59	0xbd86bbdc	-0.065788
60	0x3d963412	0.073341504
61	0x3e52cd4b	0.20586126
62	0x3d4c9a14	0.049951628
63	0xbda9dd32	-0.08294143
64	0xbdc28fc7	-0.095000796
65	0x3db0cad9	0.0863244
66	0xbe554801	-0.20828249
67	0xbccb51f6	-0.024819355
68	0x3d0c0916	0.034188353
69	0x3e8afd0b	0.2714618
70	0x3e1b4621	0.15163471
71	0x3de3a8bb	0.11116167
72	0x3d3122c1	0.043246035
73	0x3e43cd4a	0.1912128
74	0xbd954e75	-0.07290355
75	0x3e7738a4	0.241427
76	0xbca91a87	-0.020642532
77	0x3d23af01	0.03996182
78	0x3d859591	0.06522668
79	0xbe19ae91	-0.15007998
80	0x3e8db259	0.2767513
81	0xbdb1fca4	-0.086907655
82	0xbea3d671	-0.31999543
83	0x3e1f21a4	0.15540177
84	0xbaef424c	-0.0018254011
85	0x3dd56dcd	0.104213335
86	0x3e402650	0.18764615
87	0xbdc3aec7	-0.095548205
88	0x3e1937e3	0.14962725
89	0x3de002a1	0.109380014
90	0x3e0e7ee2	0.1391559
91	0xbe45d814	-0.19320709
92	0xbe2fee96	-0.17180857
93	0xbe5a990b	-0.21347444
94	0x3e375760	0.17904425
95	0xbdbebe92	-0.09313692
96	0x3dad3477	0.084572725
97	0x3d97fc72	0.07421197
98	0x3e094a18	0.13407171
99	0xbcef249d	-0.029192263
100	0xbd699d85	-0.057034988
101	0x3d0f4c79	0.03498504
102	0x3e6a8a4b	0.22904317
103	0x3e091896	0.13388285
104	0xbe6a33a7	-0.22871266
105	0xbe0b2fc5	-0.13592441
106	0x3e2fbdca	0.17162243
107	0x3de72b22	0.11287524
108	0x3d3ae8e0	0.045632243
109	0xbe83ac5d	-0.2571744
110	0xbe4dbef1	-0.2009237
111	0xbe8d5a9f	-0.276082
112	0xbc978f31	-0.018500896
113	0xbdefb094	-0.117036015
114	0xbe17aa9f	-0.1481118
115	0x3e1ed047	0.15509139
116	0x3e374244	0.17896372
117	0x3d90ef2d	0.07076869
118	0x3e09d381	0.13459589
119	0xbd40f45b	-0.047108036
120	0xbdac10ff	-0.08401679
121	0xbe3232c4	-0.17402178
122	0xbe314a2d	-0.17313452
123	0xbe0db4a6	-0.13838443
124	0x3e6aed83	0.22942166
125	0x3cff6daa	0.031180222
126	0xbe5de4f4	-0.2166937
127	0xbe3885f0	-0.18019843
128	0x3e070fd6	0.13189635
129	0xbce91f7d	-0.028457398
130	0x3dcd030e	0.10010348
131	0xbe30619a	-0.17224732
132	0xbd19f262	-0.03758467
133	0x3e68cd94	0.22734672
134	0xbda7e241	-0.081974514
135	0x3e0831a2	0.13300183
136	0x3e00ac28	0.12565672
137	0xbe580136	-0.21094212
138	0xbd09458e	-0.0335136
139	0x3d09c8e3	0.033638846
140	0x3d30b753	0.04314358
141	0x3ddcfcc0	0.10790396
142	0x3e42256b	0.18959586
143	0x3e23296d	0.15933771
144	0xbe24aebc	-0.16082281
145	0xbe1ba33c	-0.15198988
146	0xbdb84d38	-0.08999103
147	0xbd7a1ee9	-0.061064634
148	0xbca0d821	-0.019634308
149	0xbe0e3087	-0.13885699
150	0xbd827c51	-0.06371368
151	0xbd808b89	-0.06276614
152	0xbd8d9d7d	-0.06914804
153	0x3e771dd3	0.24132471
154	0xbe45b989	-0.19309057
155	0x3ca374bf	0.01995313
156	0xbd7d9996	-0.06191405
157	0x3d9cdf63	0.07659795
158	0x3db56e99	0.088589855
159	0x3e26f215	0.16303284
160	0xbe545a6a	-0.20737615
161	0x3e0e2631	0.13881756
162	0x3e156ba8	0.14591849
163	0xbe822009	-0.25415066
164	0xbe42b563	-0.19014506
165	0x3e193b85	0.14964111
166	0xbddba9d1	-0.10725749
167	0xbe024bb0	-0.12724185
168	0xbd89e6f4	-0.06733504
169	0x3dfe779b	0.12425157
170	0x3be91d83	0.007114114
171	0x3cb8caca	0.022557635
172	0x3dcd4eba	0.100247815
173	0x3e5152a3	0.2044168
174	0x3d90497c	0.07045266
175	0xbe74961b	-0.23885386
176	0xbe1bb23d	-0.15204711
177	0xbd94f552	-0.07273354
178	0x3e0233a7	0.12715016
179	0x3c67b779	0.014142864
180	0xbdfc49ce	-0.123187646
181	0xbe8cd7c9	-0.2750838
182	0x3de8ce2b	0.113674484
183	0x3cbed23a	0.023293603
184	0xbe2071ee	-0.1566846
185	0x3bad0556	0.005280177
186	0xbd066644	-0.03281237
187	0xbe72ec81	-0.23723032
188	0x3dba5f33	0.09100189
189	0xbdcaff49	-0.09911973
190	0xbe1e417e	-0.15454671
191	0x3e1de4bc	0.15419286
192	0xbc975d3f	-0.01847708
193	0xbd9cd998	-0.0765869
194	0x3dbdc9a7	0.09266978
195	0x3e3db614	0.18526489
196	0xbc451898	-0.012029789
197	0x3d1b3801	0.037895206
198	0xbdb6fd67	-0.089350514
199	0xbc03ca51	-0.008043841
200	0xbdeaedf1	-0.11471165
201	0x3de0e356	0.10980861
202	0xbe84dadd	-0.2594823
203	0x3e503fab	0.20336787
204	0xbd640974	-0.055673078
205	0xbcd689a6	-0.026188683
206	0x3e0a7a8c	0.1352331
207	0x3e4cbfff	0.19995116
208	0x3e854165	0.26026455
209	0x3e40f12a	0.18841997
210	0x3c9f7aac	0.019467674
211	0xbdd7753e	-0.10520409
212	0x3e43e450	0.19130063
213	0xbdb91a3e	-0.090382084
214	0xbd9b2dca	-0.07577093
215	0xbcd9a177	-0.02656625
216	0xbdf0beaa	-0.11755116
217	0xbe13afe2	-0.14422563
218	0x3c5a58a4	0.013326798
219	0xbe3faa87	-0.18717395
220	0xbc43c80b	-0.011949549
221	0x3d920fd3	0.071319245
222	0xbe1d0ec8	-0.1533767
223	0xbdc741f6	-0.09729378
224	0x3e6e7fb5	0.23290904
225	0x3e497276	0.1967257
226	0xbe43acdc	-0.1910891
227	0x3dfb970b	0.122846685
228	0x3e5cd1e0	0.21564436
229	0x3d3d14b4	0.046162322
230	0x3e86d926	0.26337546
231	0xbda237e2	-0.07920815
232	0xbe6aa750	-0.22915387
233	0x3d5e97e0	0.054344058
234	0x3d99cd9e	0.075099215
235	0x3df4efd5	0.11959807
236	0x3e22b9a8	0.15891135
237	0x3e363fe9	0.17797817
238	0xbde2ea23	-0.11079814
239	0xbe6e7f8a	-0.2329084
240	0xbe97c7ef	-0.29644725
241	0x3e2ab031	0.16668774
242	0x3e9f6fb6	0.31139916
243	0xbd988f8e	-0.07449256
244	0x3e1e05e9	0.15431942
245	0x3db81e3d	0.089901425
246	0x3e0ccc31	0.13749768
247	0xbe0cdd2e	-0.13756248
248	0x3d4826ea	0.048865236
249	0xbbcadb66	-0.006190705
250	0x3dbc991d	0.092088915
251	0x3e974086	0.29541415
252	0xbd1c464f	-0.03815299
253	0xbcc375d4	-0.023859896
254	0xbe0ea351	-0.13929488
255	0xbd331b4d	-0.043727208

block1.bn2.weight f4 [32]
0	0x3f191672	0.59799874
1	0x3f33f044	0.7028849
2	0x3ef48b9c	0.47762764
3	0x3f595e17	0.84909195
4	0x3f5e4073	0.8681709
5	0x3f612c6a	0.87958395
6	0x3f3ad28f	0.72977537
7	0x3f6a424e	0.9150742
8	0x3ef68f2f	0.48156115
9	0x3f180406	0.5938114
10	0x3f4be87c	0.7965162
11	0x3f766b07	0.9625706
12	0x3f4c5b52	0.79826844
13	0x3f48cca0	0.7843723
14	0x3f517829	0.81823975
15	0x3f6d56bb	0.92710465
16	0x3f0093df	0.50225633
17	0x3f0b17e1	0.5433331
18	0x3f580859	0.8438774
19	0x3f18f846	0.59753835
20	0x3f074f83	0.528557
21	0x3f5c454b	0.8604323
22	0x3f6aa713	0.91661185
23	0x3f3fac30	0.7487211
24	0x3f05c0b9	0.52247196
25	0x3f3cfe03	0.7382509
26	0x3f21d12b	0.6320979
27	0x3f221470	0.63312435
28	0x3f6b700f	0.9196786
29	0x3f648418	0.8926406
30	0x3f391416	0.72296274
31	0x3f245ab9	0.6420093

block1.bn2.bias f4 [32]
0	0xbe9824db	-0.29715618
1	0xbe6b6496	-0.22987589
2	0x3ecda280	0.4016304
3	0xbda42177	-0.080141954
4	0xbdc5db56	-0.09660976
5	0xbd6fb0bc	-0.058518156
6	0x3e402660	0.18764639
7	0x3cf74e35	0.03018866
8	0x3e977537	0.29581615
9	0xbe77350c	-0.2414133
10	0xbe1ff940	-0.15622425
11	0xb8d666c0	-0.00010223454
12	0xbddaa455	-0.10675875
13	0xbe01f84a	-0.12692371
14	0x3de615cb	0.112346254
15	0xbcb97654	-0.022639431
16	0x3ea09a59	0.31367758
17	0xbeae01d6	-0.33985776
18	0x3da31d4b	0.079645716
19	0xbe93db0d	-0.2887806
20	0x3eb367f9	0.35040262
21	0x3d69007e	0.056885235
22	0xbd0cfb6d	-0.034419466
23	0x3e3417f0	0.17587256
24	0xbe9c14c6	-0.304846
25	0xbe40bd26	-0.18822154
26	0x3e8afcb1	0.27145913
27	0x3e5daf0b	0.21648805
28	0x3c1359b7	0.008993558
29	0x3d711665	0.058859248
30	0xbe3d5fd6	-0.1849359
31	0x3e8eb00a	0.27868682

block1.bn2.running_mean f4 [32]
0	0x3cbab081	0.022789242
1	0xbe4845e9	-0.19557919
2	0x3c9a081b	0.018802693
3	0xbd4a1bf0	-0.04934305
4	0x3cf409f0	0.029789895
5	0xbac56b40	-0.001506187
6	0xbb888196	-0.0041658385
7	0xbd59312b	-0.053025406
8	0x3dd2df4e	0.10296498
9	0xbddcd687	-0.10783105
10	0xbc8df501	-0.017328741
11	0xbdbd2681	-0.0923586
12	0x3c40f366	0.011776781
13	0x3baf1677	0.005343254
14	0x3e06d328	0.13166487
15	0x3dce13cb	0.10062369
16	0x3d83451b	0.06409665
17	0x3c798ac9	0.015230843
18	0xbb47541a	-0.0030415119
19	0x3c9136a9	0.01772626
20	0x3e20061a	0.15627328
21	0x3cf32e7b	0.02968525
22	0xbd2a009b	-0.041504484
23	0x3e38cb35	0.18046267
24	0x3e0b0b5a	0.13578549
25	0x3c98e1ad	0.018662298
26	0x3d6afaab	0.05736796
27	0x3df62b3c	0.12019965
28	0xbcae6e8f	-0.021292953
29	0x3cd672e9	0.02617784
30	0xbc0e53af	-0.008686944
31	0x3d237cfd	0.03991412

block1.bn2.running_var f4 [32]
0	0x3e25ffcb	0.16210859
1	0x3e31a5ed	0.17348452
2	0x3ddee5e7	0.10883694
3	0x3eaea9ec	0.34114015
4	0x3e2c4359	0.16822566
5	0x3e1df2d7	0.15424667
6	0x3edd3ab7	0.43208858
7	0x3e387791	0.18014361
8	0x3e75ceba	0.24004641
9	0x3e32611c	0.17419857
10	0x3ded417c	0.11584756
11	0x3e742b6a	0.23844686
12	0x3e26f659	0.16304912
13	0x3e2bf1c2	0.16791442
14	0x3e8fc989	0.28083447
15	0x3de64961	0.11244465
16	0x3d1664f1	0.03671736
17	0x3e46ef7c	0.19427294
18	0x3db56713	0.088575505
19	0x3e159e26	0.1461111
20	0x3e9a0a7c	0.30086124
21	0x3e509087	0.20367633
22	0x3da73437	0.08164256
23	0x3d4019ca	0.046899594
24	0x3ce314ab	0.027719816
25	0x3d825b32	0.063650504
26	0x3e1093f3	0.14118938
27	0x3e6eff63	0.2333961
28	0x3ea33784	0.31878293
29	0x3dfb6856	0.1227576
30	0x3ea428bb	0.32062325
31	0x3d458c8a	0.04822973

block2.dw.weight f4 [32, 1, 3, 3]
0	0x3e0c9054	0.13726932
1	0x3eb6102b	0.3555921
2	0xbdbb3fa6	-0.09142999
3	0x3ded8390	0.11597359
4	0x3ee7bdc5	0.4526197
5	0xbc4ff137	-0.012691787
6	0x3c40e67d	0.011773703
7	0xbdb1da21	-0.08684183
8	0x3e511784	0.20419127
9	0xbe4438d5	-0.19162305
10	0x3d5433f2	0.05180735
11	0xbe928c0e	-0.28622478
12	0x3e10f9e4	0.14157826
13	0x3e964bcf	0.29354712
14	0xbe9663db	-0.2937306
15	0xbe19fee2	-0.15038636
16	0xbd805f30	-0.062681556
17	0x3ce3c1d1	0.02780238
18	0xbea10eb7	-0.3145654
19	0xbd9a948d	-0.07547865
20	0x3decf0c1	0.11569358
21	0x3c1602f1	0.009155975
22	0x3d105fb3	0.035247516
23	0xbec4c301	-0.38430026
24	0xbd21fda2	-0.039548524
25	0x3da00258	0.07812947
26	0xbe1bfdbb	-0.15233509
27	0xbc2ec47d	-0.010666964
28	0x3e27385f	0.16330098
29	0xbe801e52	-0.25023133
30	0x3dfa82ce	0.1223198
31	0x3e82c335	0.25539556
32	0x3e6bc77a	0.23025313
33	0x3aaa77d2	0.001300568
34	0x3e5595a4	0.20857865
35	0x3c0524f4	0.008126486
36	0x3df9bbf7	0.121940546
37	0xbd58c27c	-0.05291985
38	0x3e1047f4	0.14089948
39	0xbcf858e1	-0.030315818
40	0x3dbddfab	0.09271177
41	0x3e2d762b	0.16939609
42	0x3ebd26f5	0.36943784
43	0x3e868b8e	0.26278347
44	0x3e926269	0.28590706
45	0x3e4c5b98	0.19956815
46	0x3de1e3b8	0.11029762
47	0xbe8b50a7	-0.2720997
48	0xbd91cbb4	-0.071189314
49	0xbf03a0b4	-0.5141709
50	0xbddfac40	-0.10921526
51	0xbe1ac1f6	-0.15113053
52	0xbd04fb24	-0.03246607
53	0xbe75df31	-0.24010922
54	0x3e9acecd	0.302359
55	0x3e71ef4c	0.23626441
56	0x3eb0de8b	0.34544787
57	0x3d8a4225	0.06750897
58	0x3e629b34	0.22129518
59	0x3e0c08c8	0.13675225
60	0xbdc340b1	-0.09533823
61	0xbe1e274f	-0.15444683
62	0xbe706361	-0.2347541
63	0xbd853a02	-0.06505205
64	0xbe25d011	-0.16192652
65	0xbb144df5	-0.0022629474
66	0xbc6ccabf	-0.014452635
67	0xbe3d4c6a	-0.18486181
68	0x3a7c668f	0.00096283195
69	0xbddc4802	-0.10755922
70	0x3d9370ca	0.07199247
71	0x3c22a03d	0.009925899
72	0x3e634564	0.22194439
73	0x3de543e8	0.11194593
74	0x3d2868eb	0.041115683
75	0xbe7591a5	-0.2398134
76	0x3ba0c3a9	0.004906137
77	0xbe422b36	-0.18961796
78	0xbcb109d5	-0.021611134
79	0x3eb4c66f	0.35307643
80	0x3e1e440d	0.15455647
81	0xbe85c2bf	-0.26125142
82	0xbdd0cbfe	-0.101951584
83	0xbdf249f0	-0.11830509
84	0xbc7592f2	-0.014988648
85	0xbe97fc17	-0.29684517
86	0x3e388a14	0.18021423
87	0xbe7270dc	-0.23675865
88	0x3e7eda2a	0.2488791
89	0x3dedd7f0	0.116134524
90	0xbdf4ca44	-0.119526416
91	0x3eba2cc5	0.3636228
92	0x3ccbf4de	0.024897035
93	0x3cdf186c	0.027233325
94	0x3db4a5e2	0.08820702
95	0x3e0f2b9c	0.1398148
96	0xbb0cfb06	-0.0021511926
97	0x3d022723	0.031775605
98	0x3cc6e632	0.024279688
99	0x3e0ac841	0.13552953
100	0xbd9c643d	-0.076363064
101	0xbc088f9d	-0.008335021
102	0xbe1d758d	-0.15376873
103	0xbd25102b	-0.040298622
104	0xbe8ad34e	-0.27114338
105	0xbe514c10	-0.20439172
106	0xbef81100	-0.4845047
107	0xbcf4c4d9	-0.02987902
108	0x3e58b093	0.21161108
109	0xbe0081d1	-0.12549521
110	0xbe0f3a54	-0.13987094
111	0xbd2decaf	-0.042462047
112	0x3d043d1c	0.03228484
113	0x3d50577b	0.050864678
114	0x3e1db30e	0.15400335
115	0x3e4beece	0.19915316
116	0x3ea9beaa	0.33153278
117	0x3ddb23af	0.107001655
118	0x3dadec2f	0.08492314
119	0x3e06fedb	0.13183157
120	0x3d60cb1f	0.05488121
121	0xbf03f603	-0.5154726
122	0xbe456915	-0.19278367
123	0xbd15df4f	-0.036589917
124	0xbd57bd89	-0.05267099
125	0xbd1f64bc	-0.038914427
126	0xbea8af2f	-0.32946154
127	0x3e6f0208	0.23340619
128	0x3dff0b01	0.12453271
129	0xbd48b626	-0.049001835
130	0xbb85a6f8	-0.004078742
131	0xbe5f5a59	-0.21811809
132	0xbe556869	-0.2084061
133	0x3de27c00	0.110588074
134	0xbedc6a6c	-0.43049943
135	0xbdb298ac	-0.08720526
136	0x3be8c74f	0.0071038376
137	0x3ddce7ad	0.10786376
138	0x3e6e2ea8	0.23259985
139	0xbea401b2	-0.32032543
140	0xbec10f77	-0.3770711
141	0x3a99e98f	0.001174258
142	0xbeca6008	-0.3952639
143	0x3e655990	0.22397447
144	0xbdba053e	-0.09083031
145	0xbdbd05da	-0.09229632
146	0xbdd279ac	-0.10277113
147	0x3e385be3	0.18003802
148	0xbe8b2739	-0.27178362
149	0x3c5aa3b4	0.013344694
150	0xbdb5571f	-0.08854508
151	0xbd5754cf	-0.052571114
152	0x3d947864	0.07249525
153	0x3dc68ebe	0.09695195
154	0x3e8eadd6	0.27867
155	0x3d7aaf5c	0.061202392
156	0x3eae238f	0.34011504
157	0x3da35908	0.07975966
158	0xbe0ab209	-0.13544478
159	0x3e71bf63	0.23608164
160	0xbe5af142	-0.21381095
161	0x3dab3e69	0.08361513
162	0x3b28fc56	0.002578517
163	0xbe6f3d9e	-0.23363349
164	0xbd8bfd5f	-0.06835436
165	0xbed92d1b	-0.42417225
166	0x3d1a84bb	0.037724238
167	0xbe231bcd	-0.15928574
168	0xbca33536	-0.019922834
169	0x3e46ddb4	0.1942051
170	0x3d9a98f6	0.07548706
171	0xbe83aa80	-0.2571602
172	0x3de94436	0.11389963
173	0x3e21cde8	0.15801203
174	0x3e624ff0	0.22100806
175	0x3ecd8994	0.40144026
176	0xbddf7e86	-0.10912804
177	0xbe2e5abe	-0.17026803
178	0x3e517efa	0.20458594
179	0x3d27c504	0.040959373
180	0xbe3c2c6c	-0.1837632
181	0xbc927566	-0.017878246
182	0x3e3841f8	0.17993915
183	0x3defee3b	0.11715361
184	0x3ea403f1	0.32034257
185	0x3eee3d2a	0.4653104
186	0x3e2d9501	0.16951372
187	0x3e875729	0.26433685
188	0xbe0fe37f	-0.14051627
189	0xbe29a5ea	-0.16567197
190	0x3e255312	0.1614497
191	0x3d267cb8	0.040646285
192	0x3e83e842	0.25763136
193	0xbecb3acf	-0.39693305
194	0xbd85bb0e	-0.065298185
195	0xbe6870a9	-0.22699226
196	0x3e21f4f2	0.15816095
197	0xbdfe0d0e	-0.12404834
198	0xbe916c98	-0.28403163
199	0xbebd016b	-0.36915144
200	0xbe9af9d0	-0.30268717
201	0x3e09e853	0.13467531
202	0x3e4541ff	0.19263457
203	0x3d10f536	0.0353901
204	0xbeaf879b	-0.34283146
205	0x3d06cdd1	0.032911126
206	0xbe6579a9	-0.22409691
207	0xbdeb9cb3	-0.115044974
208	0xbe2775c7	-0.16353522
209	0xbe3f3781	-0.18673517
210	0xbd910737	-0.07081454
211	0xbed43141	-0.41443828
212	0xbe1ffb9b	-0.15623324
213	0xbe437079	-0.19085874
214	0x3e26e172	0.16296938
215	0x3dfe496a	0.12416346
216	0x3ca16e44	0.019705899
217	0xbeb62e82	-0.35582358
218	0xbe6aaa75	-0.22916587
219	0xbe7ecfc3	-0.24883942
220	0x3a66598a	0.0008787146
221	0xbec4894f	-0.38386008
222	0xbd85efb5	-0.06539861
223	0x3c9c09ed	0.019047702
224	0x3ace593a	0.0015743144
225	0x3e41775b	0.18893187
226	0xbd2dc36d	-0.0424227
227	0x3e062ebc	0.13103765
228	0xbe94465d	-0.28959933
229	0x3f27341a	0.65313876
230	0xbe2743bd	-0.16334434
231	0x3d2d920b	0.042375606
232	0x3cf792c6	0.030221354
233	0x3e771e8e	0.2413275
234	0x3dd7c9b7	0.10536521
235	0xbd6a675d	-0.05722748
236	0x3e8cf70c	0.27532232
237	0xbe2aeb8e	-0.1669142
238	0x3da5351b	0.0806677
239	0xbd7b70ba	-0.0613868
240	0x3defdd88	0.117121756
241	0x3e32da8d	0.17466183
242	0x3e961a58	0.29316974
243	0x3e821e8a	0.25413924
244	0xbd207859	-0.039177272
245	0xbd3079c5	-0.04308488
246	0xbe72420c	-0.23658007
247	0x3a14f075	0.0005681583
248	0xbe7e0880	-0.2480793
249	0x3e778f2e	0.24175712
250	0x3e90db7d	0.28292456
251	0xbe341aca	-0.17588344
252	0x3e27f52b	0.16402118
253	0x3d818663	0.0632446
254	0xbc68284a	-0.014169762
255	0xbd53b696	-0.0516878

block2.bn1.weight f4 [32]
0	0x3f806e4f	1.0033664
1	0x3f73def8	0.952621
2	0x3f7eb4e3	0.9949476
3	0x3f85fea8	1.046834
4	0x3f82b933	1.0212768
5	0x3f83f5e7	1.0309418
6	0x3f68e16e	0.9096898
7	0x3f70c76b	0.9405429
8	0x3f62968b	0.8851096
9	0x3f6ceeb9	0.9255176
10	0x3f7a692f	0.9781675
11	0x3f8280c5	1.0195547
12	0x3f6b6b3b	0.91960496
13	0x3f5ac9bc	0.8546407
14	0x3f7503e9	0.9570909
15	0x3f5bbd14	0.85835385
16	0x3f6c2db5	0.92257243
17	0x3f74d8b5	0.9564317
18	0x3f678330	0.9043455
19	0x3f786c7c	0.97040534
20	0x3f881c98	1.0633726
21	0x3f698105	0.91212493
22	0x3f7fa771	0.9986487
23	0x3f79cabf	0.9757499
24	0x3f55a76a	0.8345858
25	0x3f7d6857	0.98987335
26	0x3f805d15	1.0028406
27	0x3f3979ca	0.7245146
28	0x3f7e4004	0.9931643
29	0x3f687b0e	0.90812767
30	0x3f7f454f	0.9971513
31	0x3f7ee96f	0.9957494

block2.bn1.bias f4 [32]
0	0xbc7692e7	-0.015049673
1	0x3bd0915c	0.0063649844
2	0x3d177692	0.03697831
3	0x3d80e75f	0.062941305
4	0xbc5fc34b	-0.013657401
5	0x3d09de37	0.033659186
6	0xbd0649b1	-0.03278512
7	0xbda54a51	-0.08070815
8	0xbd9fd9db	-0.078052245
9	0xbd38ff69	-0.045165453
10	0x3d19d929	0.037560616
11	0x3d2cbced	0.04217236
12	0xbb181d3c	-0.0023210784
13	0x3d1af06e	0.037826948
14	0x3c1db107	0.009624726
15	0xbd142940	-0.03617215
16	0x3da1440f	0.07874309
17	0xbd0470d2	-0.032334156
18	0x3c7d6cb9	0.015467816
19	0x3c35cd4c	0.01109631
20	0x3d7f0e26	0.062269352
21	0x3ab95644	0.0014140089
22	0x3d3d3efc	0.046202645
23	0xbcaa5652	-0.020793114
24	0xbd921879	-0.07133574
25	0xbb6617bd	-0.0035109364
26	0xbc7932d4	-0.015209872
27	0xbc3c796a	-0.011503557
28	0xbbc3e541	-0.005978257
29	0x3c0edeae	0.008720083
30	0x3b9f2d07	0.0048576626
31	0x3c10a8bf	0.008829295

block2.bn1.running_mean f4 [32]
0	0xbea4d58d	-0.32194176
1	0x3ddb9b83	0.10723021
2	0xbe950fc2	-0.29113585
3	0xbd6e59b0	-0.058191
4	0xbe0498d5	-0.12948926
5	0x3d7f962e	0.062399082
6	0x3e1df2fe	0.15424725
7	0xbc603a01	-0.013685704
8	0x3e031f34	0.12804872
9	0x3def2735	0.116774
10	0xbdb8b0ee	-0.09018122
11	0x3a794978	0.0009509544
12	0xbd9147ff	-0.0709381
13	0x3d6ef2fe	0.058337204
14	0xbdb0b398	-0.08628005
15	0x3c628201	0.013824941
16	0xbe0b517e	-0.13605306
17	0xbe8f2e5e	-0.27965063
18	0xbd41f9bf	-0.047357317
19	0xbe326179	-0.17419995
20	0x3ed24ad2	0.41072708
21	0xbca9e2c7	-0.020738019
22	0x3d23d014	0.03999336
23	0xbe34e859	-0.17666759
24	0x3ec0b4d9	0.37637976
25	0xbe18298f	-0.14859603
26	0x3e520669	0.20510258
27	0x3bf98c55	0.007615606
28	0x3c123334	0.008923341
29	0xbd298073	-0.041382264
30	0xbe0d8258	-0.13819253
31	0xbe3a141e	-0.18171737

block2.bn1.running_var f4 [32]
0	0x3ed26e2f	0.41099688
1	0x3dcf1b0d	0.101125814
2	0x3deb2516	0.11481683
3	0x3ec2d721	0.38054755
4	0x3fa454b7	1.2838353
5	0x3f609fe0	0.8774395
6	0x3ec12c21	0.3772898
7	0x3e28eeb3	0.16497307
8	0x3d2fd1a9	0.042924557
9	0x3db6177b	0.08891197
10	0x3e53bc8b	0.20677392
11	0x3f909296	1.1294734
12	0x3e8f73ae	0.28017944
13	0x3e1308c6	0.14358816
14	0x3ec1a95e	0.3782453
15	0x3ea9f3c5	0.33193794
16	0x3d3c0b4b	0.045909207
17	0x3e46550f	0.19368385
18	0x3e7c0e3a	0.24614802
19	0x3e07ebc6	0.13273534
20	0x3ebe41a3	0.37159452
21	0x3dbffd0f	0.09374439
22	0x3f724e7f	0.94651026
23	0x3f0a8da7	0.54122394
24	0x3ebf507a	0.37366086
25	0x3ea8433d	0.328638
26	0x3e582e8c	0.21111506
27	0x3c556b81	0.013026119
28	0x3f4d264a	0.8013655
29	0x3ecb797d	0.39741126
30	0x3e95c214	0.29249632
31	0x3e29a859	0.16568126

block2.pw.weight f4 [64, 32, 1, 1]
0	0xbc218b5d	-0.009859887
1	0xbd866e55	-0.06564013
2	0xbbe15255	-0.00687627
3	0xbe256ec9	-0.16155542
4	0xbdd40fb5	-0.103545584
5	0x3e46a285	0.19397934
6	0x3d83f885	0.06443886
7	0x3da65d4e	0.08123265
8	0x39f672ad	0.00047006216
9	0xbd5f5238	-0.05452177
10	0xbe4db087	-0.20086871
11	0x3d94bf1d	0.072630145
12	0xbdcfb1a6	-0.101413056
13	0x3cfa8561	0.030581178
14	0x3defb43a	0.11704297
15	0x3db54d33	0.08852615
16	0xbc8ba519	-0.017046498
17	0x3dd77aea	0.10521491
18	0x3d58c8c4	0.05292584
19	0x3d5609a6	0.052255295
20	0x3cba0f16	0.022712272
21	0xbcbd5624	-0.023112364
22	0xbe77d17b	-0.24201004
23	0x3da92a99	0.08260078
24	0xbe27e172	-0.16394594
25	0xbbb6d537	-0.0055796164
26	0xbe7e2e03	-0.2482224
27	0x3dd291cf	0.10281717
28	0xbdddc82c	-0.108291954
29	0x3dc0eed8	0.09420556
30	0x3e252662	0.16127923
31	0x3daab2ef	0.0833491
32	0xbd2acb0a	-0.04169754
33	0x3de7737b	0.11301323
34	0xbdef3c0a	-0.116813734
35	0x3a6ce147	0.00090362545
36	0xbe00ed74	-0.12590581
37	0x3e0d2342	0.13782981
38	0xbbd5858f	-0.0065161656
39	0x3dd2c672	0.10291757
40	0xbd0a072a	-0.03369824
41	0xbc1ba30a	-0.009499321
42	0x3db0aa4f	0.08626234
43	0xbce35aa3	-0.02775318
44	0xbb96a636	-0.0045974506
45	0x3b97793c	0.0046226066
46	0xbd5de0b9	-0.05416939
47	0xbdc3be4e	-0.09557782
48	0x3dcb5062	0.09927441
49	0xbe274417	-0.16334568
50	0xbe307116	-0.17230639
51	0x3e40207b	0.1876239
52	0xbcd14b27	-0.02554853
53	0x3d9e1eb6	0.077207014
54	0xbda6e0e4	-0.08148363
55	0x3e1b066f	0.15139173
56	0xbd8b5047	-0.06802421
57	0x3d87c62b	0.066295944
58	0x3d56555e	0.052327506
59	0x3d1dc7ed	0.038520742
60	0xbe158747	-0.14602385
61	0xbd9a1b44	-0.07524732
62	0xbe58a9ad	-0.21158476
63	0xbde5dfdb	-0.11224338
64	0x3d4ae6ec	0.04953663
65	0x3d95a3c6	0.07306628
66	0xbd09f221	-0.033678178
67	0x3e6cad65	0.2311302
68	0xbce0a9e4	-0.02742476
69	0xbdd7fc28	-0.10546142
70	0xbd8cd0ef	-0.068757884
71	0x3dec597f	0.115405075
72	0xbbb22b8a	-0.005437319
73	0xbe00246a	-0.12513891
74	0xbda0bb13	-0.078481816
75	0x3e0be5bd	0.13661857
76	0x3e21330f	0.15742134
77	0x3d9c7f86	0.07641511
78	0xbd086128	-0.03329578
79	0x3dd17f65	0.10229377
80	0xbce5b08a	-0.028038282
81	0x3daa7a0c	0.0832406
82	0x3df22c48	0.11824852
83	0x3e35b55b	0.17744963
84	0xbc52c0c0	-0.012863338
85	0xbdb1e888	-0.0868693
86	0xbccbc048	-0.02487196
87	0x3dc5e175	0.09662143
88	0xbd529f81	-0.051421646
89	0x3d97420c	0.07385644
90	0x3dfc5fe6	0.12322979
91	0x3c5d8316	0.013520023
92	0x3be8f548	0.007109318
93	0x3e3c75c8	0.18404305
94	0xbcde8f02	-0.0271678
95	0x3df8350f	0.12119495
96	0x3dbb1622	0.09135081
97	0x3e09d39c	0.13459629
98	0xbe3906df	-0.18069027
99	0x3e12d059	0.14337291
100	0x3c84373f	0.016139625
101	0xbdd3d13e	-0.10342644
102	0x3d8ca78a	0.06867893
103	0x3dd1fde7	0.10253506
104	0x3ddd21d7	0.1079747
105	0x3d87b207	0.06625753
106	0xbddf1722	-0.10893084
107	0xbc99611f	-0.018723069
108	0xbcb691ac	-0.022286259
109	0x3de21819	0.110397525
110	0x3e3a7fc3	0.182128
111	0x3dea6a5f	0.1144607
112	0xbd215441	-0.03938699
113	0xbe14110d	-0.1445963
114	0x3df05cdb	0.11736461
115	0x3e227043	0.15863137
116	0x3d98c58a	0.074595526
117	0xbcf28f75	-0.029609421
118	0x3b8219d0	0.0039703622
119	0x3d0e2047	0.03469875
120	0x3db7707d	0.08957002
121	0xbdd8e72a	-0.10590966
122	0x3d6bb2d3	0.057543587
123	0x3e18a204	0.14905554
124	0x3e0b6a07	0.13614665
125	0xbdcb7f0a	-0.0993634
126	0xbe2b185b	-0.1670851
127	0x3d9ecb3c	0.07753608
128	0xbd9b9b66	-0.07597999
129	0xbd1b3dfb	-0.037900906
130	0xbba8f004	-0.005155565
131	0x3cd86287	0.026414169
132	0x3e13445a	0.14381543
133	0x3bcfda81	0.0063431864
134	0xbd0334f4	-0.032032922
135	0x3d18a42a	0.037265934
136	0xbb3ace1d	-0.00285042
137	0xbdc38c86	-0.09548287
138	0x3cd0f6d0	0.025508314
139	0x3df8eb16	0.12154214
140	0xbc19651b	-0.009362484
141	0x3e590717	0.21194111
142	0xbdcbe989	-0.09956653
143	0x3ccb8f4f	0.024848608
144	0x3d1d866c	0.038458273
145	0x3d7bda44	0.06148745
146	0x3d314c6a	0.043285765
147	0x3c9726d7	0.018451137
148	0xbe3c06dd	-0.18361993
149	0xbdd3b44d	-0.10337124
150	0x3dcced3e	0.10006188
151	0x3e063111	0.13104655
152	0xbdf0054c	-0.1171976
153	0xbddf7ba6	-0.10912256
154	0x3d2960dd	0.04135214
155	0xbcb8a339	-0.022538768
156	0xbdc8d5cf	-0.09806406
157	0x3e436f45	0.19085415
158	0x3dd1cea1	0.102444895
159	0xbe0d05ca	-0.1377174
160	0x3d9c96b3	0.07645931
161	0xbb8862d9	-0.004162174
162	0x3d4f4712	0.050604887
163	0x3d65ac34	0.05607243
164	0x3ddade88	0.10686976
165	0x3d192b34	0.037394717
166	0xbb79771e	-0.0038065384
167	0xbd8df52b	-0.06931528
168	0xbbe7a620	-0.007069364
169	0x3c91865f	0.017764268
170	0xbc408280	-0.011749864
171	0x3dccdcb5	0.10003034
172	0xbdd76d30	-0.10518873
173	0x3e0a3db6	0.13500103
174	0xbe2b3bd9	-0.16722049
175	0xbc32dc59	-0.010916793
176	0xbc5023c3	-0.012703839
177	0xbe4e4e3e	-0.20147035
178	0xbcd84b0c	-0.026402973
179	0x3c88adca	0.016684432
180	0x3d3c6db3	0.046003055
181	0x3e098bf0	0.13432288
182	0xbb3683d3	-0.002784957
183	0x3d054232	0.032533832
184	0x3c47fcfb	0.012206311
185	0x3e528954	0.20560199
186	0xbd88afc8	-0.066741526
187	0xbbe96d75	-0.007123644
188	0xbe3b0ec1	-0.18267347
189	0x3e426bc0	0.18986416
190	0xbdbe8308	-0.09302336
191	0xbdb09fb8	-0.08624214
192	0x3df7cbc1	0.1209941
193	0x3d0fa9ce	0.035074048
194	0xbd2421c9	-0.040071283
195	0x3e4dca0a	0.20096603
196	0x3d216cc5	0.03941037
197	0xbd58dbcd	-0.052943993
198	0x3d96c976	0.073626444
199	0xbdd825b4	-0.10554066
200	0x3e3bb8a7	0.18332158
201	0xbdfe9e4e	-0.12432538
202	0xbdb8ef37	-0.090300016
203	0x3d8c5052	0.068512574
204	0x3d449abc	0.04799913
205	0x3e4a2fd6	0.1974481
206	0x3e06de54	0.13170749
207	0x3e1742ee	0.14771625
208	0xbd1b44e3	-0.037907492
209	0x3d9b546d	0.07584462
210	0xbd6125b0	-0.054967582
211	0xbcde2895	-0.02711896
212	0xbd87341b	-0.06601735
213	0xbc38ba0e	-0.011274828
214	0x3e215139	0.1575364
215	0xbd79bb63	-0.06096972
216	0x3e0601d7	0.1308664
217	0x3e15c848	0.14627182
218	0x3d82691b	0.063677035
219	0x3db6394d	0.08897648
220	0x3dc1fe42	0.09472324
221	0x3e094e78	0.1340884
222	0x3d79d7c8	0.0609968
223	0x3db6a9a7	0.08919077
224	0xbe2672f0	-0.16254783
225	0x3df57363	0.11984899
226	0xbe03510d	-0.12823887
227	0x3deeec51	0.116661675
228	0xbe1049b7	-0.1409062
229	0x3d95d732	0.07316436
230	0x3b07b703	0.0020708449
231	0x3c8e9c76	0.01740859
232	0x3e35a96a	0.17740408
233	0xbdc43e05	-0.09582142
234	0x3db57b4d	0.088614084
235	0x3db45eca	0.08807142
236	0x3d8714c7	0.0659576
237	0x3dbe26df	0.09284758
238	0xbdc10194	-0.09424129
239	0x3b808fd0	0.003923394
240	0x3d80826e	0.062748775
241	0x3ba3615a	0.0049859704
242	0xbcd03bab	-0.025419077
243	0x3db19482	0.08670904
244	0x3e244a61	0.16043998
245	0xbd24084f	-0.040046986
246	0x3e57145c	0.2100386
247	0x3dd20865	0.102555074
248	0xbd86d670	-0.065838695
249	0xbd381113	-0.04493816
250	0x3d108080	0.035278797
251	0x3ded56db	0.11588832
252	0x3d349b8e	0.04409366
253	0xbced7511	-0.028986486
254	0x3da4c571	0.080454715
255	0x3bc0545c	0.0058694314

block2.bn2.weight f4 [64]
0	0x3ea78d19	0.32724836
1	0x3f5b23c1	0.8560143
2	0x3f388290	0.7207422
3	0x3f6bd643	0.9212381
4	0x3f33cc70	0.7023382
5	0x3f440d45	0.7658275
6	0x3f533b87	0.82512707
7	0x3f5e7f3d	0.869129
8	0x3f5291fa	0.8225399
9	0x3f108627	0.564547
10	0x3f267d8b	0.65035313
11	0x3f752591	0.95760447
12	0x3f70c98c	0.94057536
13	0x3e76c933	0.24100189
14	0x3f3923a1	0.7231999
15	0x3f26529d	0.6496981
16	0x3f447611	0.76742655
17	0x3f6d2d5b	0.9264733
18	0x3f60ff7c	0.8788984
19	0x3f12a535	0.57283336
20	0x3f6313c5	0.8870204
21	0x3f482799	0.7818542
22	0x3f6e6f91	0.93138987
23	0x3f54f75c	0.8318994
24	0x3f4dfc6d	0.80463296
25	0x3ef4791e	0.47748655
26	0x3f48cfef	0.7844228
27	0x3f4903d2	0.78521454
28	0x3f5dbee4	0.866194
29	0x3f7ac374	0.9795449
30	0x3f0368df	0.51331896
31	0x3f6c4f8c	0.9230888
32	0x3f6b05a4	0.9180548
33	0x3f520548	0.8203931
34	0x3f478d36	0.77949846
35	0x3f64aaaf	0.8932294
36	0x3f0b1350	0.54326344
37	0x3f3466b6	0.70469224
38	0x3f58b04e	0.8464402
39	0x3f4b3ada	0.79386675
40	0x3f22aa92	0.6354152
41	0x3f60f567	0.87874454
42	0x3f1c2aa2	0.6100255
43	0x3f3183e8	0.693419
44	0x3efb5f61	0.49096206
45	0x3f3a79bf	0.7284202
46	0x3f52dea4	0.8237097
47	0x3f426de6	0.7594894
48	0x3f3147f3	0.6925041
49	0x3f2e88c6	0.6817745
50	0x3f5095db	0.8147866
51	0x3f5dfc79	0.8671337
52	0x3ee085f2	0.43852192
53	0x3f38c730	0.72178936
54	0x3f57b76a	0.8426424
55	0x3f682231	0.9067717
56	0x3f756915	0.9586347
57	0x3f296328	0.66166925
58	0x3f4ae010	0.7924814
59	0x3f2de30d	0.67924577
60	0x3f37825f	0.71683306
61	0x3f588350	0.84575367
62	0x3f5bad31	0.85811144
63	0x3f210920	0.6290455

block2.bn2.bias f4 [64]
0	0x3ef58751	0.479548
1	0xbdcf0725	-0.101087846
2	0x3e5d5dbc	0.21617788
3	0x3cfe2c10	0.03102687
4	0x3e49f249	0.1972133
5	0xbde0eb29	-0.10982353
6	0x3e07d1eb	0.13263671
7	0x3d9419a2	0.072314516
8	0x39412092	0.00018418048
9	0x3ea2360c	0.3168186
10	0x3e6dd530	0.23225856
11	0x3c660ba9	0.014040866
12	0xbd365242	-0.04451204
13	0xbf091bf9	-0.5355831
14	0x3e431a4a	0.19052997
15	0xbe7218eb	-0.23642318
16	0x3e3cc51f	0.1843457
17	0x3ce83dd9	0.028349804
18	0x3d8bdd4d	0.06829319
19	0x3e8b810b	0.2724689
20	0x3db45131	0.088045485
21	0x3e08d905	0.13364036
22	0xbb7612ee	-0.0037547904
23	0xbda7278f	-0.08161842
24	0xbe18e2dd	-0.14930291
25	0x3ebfe124	0.37476456
26	0x3e24f707	0.16109858
27	0xbe066fae	-0.1312854
28	0xbdba44b3	-0.090951346
29	0xbc365ec9	-0.011130997
30	0xbeb174f1	-0.34659532
31	0xbcda492b	-0.026646217
32	0xbc401077	-0.0117226755
33	0x3dd49137	0.1037926
34	0x3e2cf022	0.16888478
35	0x3d9c892b	0.0764335
36	0x3eb0d671	0.34538606
37	0x3e57fe87	0.21093188
38	0x3da32d1c	0.07967588
39	0xbe1bfabd	-0.15232368
40	0x3e758d3c	0.23979658
41	0x3d492b1f	0.04911339
42	0x3e86663a	0.26249868
43	0x3e808033	0.25097808
44	0x3ebeb15d	0.37244692
45	0xbe12c906	-0.14334497
46	0xbdc4fccc	-0.0961853
47	0x3e435ec5	0.1907912
48	0xbe120ea4	-0.14263397
49	0x3e7936c1	0.24337293
50	0x3e13c1ca	0.14429393
51	0x3dbd4004	0.09240726
52	0xbecdbaf7	-0.40181705
53	0xbe36884a	-0.17825428
54	0x3deed6bf	0.11662053
55	0xbd0b9d18	-0.034085363
56	0x3d08612b	0.03329579
57	0x3e6761c2	0.22595885
58	0xbe1c48f7	-0.15262209
59	0x3e3efe20	0.18651628
60	0xbe48c7d0	-0.19607472
61	0x3dd7dc32	0.10540046
62	0xbcbc4dc6	-0.022986304
63	0x3e56df92	0.20983723

block2.bn2.running_mean f4 [64]
0	0xbd03f43b	-0.03221534
1	0xbd8309d7	-0.06398361
2	0x3e43c750	0.19119
3	0x3def1811	0.11674512
4	0x3d032900	0.032021523
5	0x3d09fa92	0.033686228
6	0x3e6ad065	0.22931059
7	0x3e1e9b1b	0.15488856
8	0xbd8c598f	-0.068530194
9	0xbe035b2e	-0.12827751
10	0x3df9f4c4	0.122048885
11	0x3e154249	0.14576067
12	0xbd996bb1	-0.07491244
13	0x3c4b3180	0.012401938
14	0xbe1a832d	-0.15089102
15	0xbd167c81	-0.03673983
16	0x3d92dc4e	0.07170926
17	0x3e16c24a	0.14722553
18	0xbe14fa9d	-0.14548726
19	0xbd59ed09	-0.05320457
20	0x3d9bd2c6	0.07608561
21	0xbe0630cf	-0.13104557
22	0xbe2867d0	-0.16445851
23	0x3dbf752e	0.09348522
24	0xbe758ced	-0.2397954
25	0xbd9759f6	-0.073902056
26	0x3e2c0ec8	0.16802514
27	0xbda70535	-0.0815529
28	0xbc93bfc8	-0.018035784
29	0xbe1c8a0a	-0.15287033
30	0x3c7e5cb3	0.015525031
31	0x3e09e32b	0.13465564
32	0x3d038740	0.032111406
33	0xbccf00e8	-0.025268987
34	0x3e7452ea	0.23859754
35	0xbd1c89a9	-0.03821722
36	0x3d772825	0.06034102
37	0xbd72b06d	-0.059250284
38	0xbe1c9572	-0.15291384
39	0x3c65f280	0.014034867
40	0x3d85b401	0.06528474
41	0xbe5dce53	-0.21660738
42	0xbdf6b868	-0.120468915
43	0x3dabd5a2	0.083903566
44	0xbdd00b3d	-0.101583935
45	0xbcfd7bfe	-0.030942913
46	0xbca43a11	-0.02004722
47	0x3d94ec64	0.072716504
48	0x3e1d0625	0.15334375
49	0xbd905eaa	-0.07049306
50	0xbdba2904	-0.09089854
51	0x3e88db65	0.26729885
52	0xbd28d5d6	-0.041219555
53	0x3e0d8ac8	0.13822472
54	0x3d067bd1	0.032832924
55	0x3d456701	0.048193935
56	0x3e10b1e1	0.14130355
57	0x3e2ad189	0.16681494
58	0xbc7e70c4	-0.015529815
59	0x3c35a6a3	0.011087093
60	0xbe283213	-0.16425352
61	0x3d016f28	0.031600147
62	0x3db706b0	0.089368224
63	0x3d924c5c	0.07143471

block2.bn2.running_var f4 [64]
0	0x3e5a2e38	0.21306694
1	0x3e827707	0.25481436
2	0x3f0853ad	0.5325268
3	0x3e39b554	0.18135577
4	0x3e548958	0.20755517
5	0x3e2779a6	0.16354999
6	0x3e7f12cb	0.24909513
7	0x3f318da8	0.69356775
8	0x3d212d06	0.03934958
9	0x3f3a6f3d	0.72825986
10	0x3ea0fe60	0.31444073
11	0x3e436050	0.19079709
12	0x3e418aae	0.18900558
13	0x3db19ed3	0.086728714
14	0x3f84a0d6	1.0361583
15	0x3d6c60dd	0.057709564
16	0x3dd56d7e	0.104212746
17	0x3d9d255d	0.07673142
18	0x3e8e5d7d	0.278057
19	0x3e20c905	0.15701683
20	0x3e033670	0.12813735
21	0x3e9ae7f0	0.3025508
22	0x3e0e1d07	0.1387826
23	0x3f0623c5	0.5239833
24	0x3f392783	0.72325915
25	0x3e1d862f	0.15383218
26	0x3f170d5d	0.59004766
27	0x3e03edf9	0.12883748
28	0x3e2d17de	0.16903636
29	0x3f305500	0.688797
30	0x3eebc79d	0.4605073
31	0x3e8c09ab	0.27351126
32	0x3d179618	0.037008375
33	0x3e26b869	0.16281284
34	0x3e936582	0.28788382
35	0x3d10d5bb	0.03536008
36	0x3d8f9fb3	0.07012882
37	0x3e1a3f75	0.1506327
38	0x3f1adc49	0.6049238
39	0x3da826d9	0.082105346
40	0x3da6c339	0.081427045
41	0x3e935399	0.28774717
42	0x3de5bdf2	0.1121787
43	0x3eb12643	0.34599504
44	0x3ebca315	0.36843172
45	0x3e90ef8b	0.28307757
46	0x3da2c2e0	0.07947326
47	0x3ebf9c6a	0.37424022
48	0x3d992c95	0.074792065
49	0x3d78a658	0.060705513
50	0x3d6423c4	0.05569817
51	0x3e5df176	0.21674141
52	0x3e86cf79	0.26330164
53	0x3ee33a9f	0.44380662
54	0x3ead858b	0.33890948
55	0x3e3c0480	0.18361092
56	0x3e00da35	0.1258324
57	0x3f2075e3	0.6267988
58	0x3ee9f901	0.45697787
59	0x3e5fd6bb	0.21859257
60	0x3e9a3409	0.30117825
61	0x3de25c8f	0.110528104
62	0x3e493431	0.19648816
63	0x3ee71889	0.45135906

block3.dw.weight f4 [80, 1, 3, 3]
0	0x3e9da36d	0.30788746
1	0xbe28d962	-0.16489175
2	0xbe7828d6	-0.24234328
3	0x3ec98a8d	0.39363518
4	0x3d5f06d5	0.054449875
5	0x3d4df23d	0.050279845
6	0xbe0c6d74	-0.13713628
7	0x3e30cf70	0.17266631
8	0xbda22cf2	-0.07918729
9	0xbdd2dcf1	-0.102960475
10	0x3e6d2074	0.23156911
11	0xbc960ecf	-0.018317608
12	0x3cd0a3eb	0.025468787
13	0xbe36bb43	-0.17844872
14	0xbe1f2266	-0.15540466
15	0x3ee0d637	0.43913433
16	0x3eb42745	0.3518621
17	0x3da3858c	0.079844564
18	0xbbd3315b	-0.0064450926
19	0xbe770596	-0.24123225
20	0x3dd10e9a	0.10207863
21	0x3e336901	0.17520525
22	0xbef59c7c	-0.4797095
23	0xbdfc99f9	-0.123340555
24	0xbc66ab7c	-0.014078971
25	0x3d8babf1	0.068199046
26	0xbe6c3b7a	-0.23069564
27	0x3e4dd1b3	0.20099525
28	0x3ebff8ea	0.37494594
29	0x3e242d24	0.16032845
30	0xbdf5156f	-0.11966979
31	0x3e36126a	0.17780462
32	0xbcebf66e	-0.02880403
33	0x3e5b1b6d	0.21397181
34	0xbe853a18	-0.26020885
35	0x3e1168c9	0.14200129
36	0x3cd5c91b	0.026096871
37	0x3ec77b6f	0.3896136
38	0x3e48afad	0.19598265
39	0x3ca94748	0.020663872
40	0xbdc280e1	-0.09497238
41	0x3e071b96	0.13194117
42	0x3e9aee0a	0.30259734
43	0x3d4e7bc6	0.05041101
44	0x3e8daef3	0.27672538
45	0x3ce40099	0.027832316
46	0x3dbd044c	0.09229335
47	0x3d256747	0.040381696
48	0xbe09c87a	-0.13455382
49	0x3e27068c	0.16311091
50	0x3e7934b7	0.24336515
51	0x3d7fa668	0.062414557
52	0x3e4bfda4	0.19920975
53	0xbe79bfbe	-0.2438955
54	0xbe83fa48	-0.25776887
55	0x3df7bef5	0.12096969
56	0xbe429452	-0.19001892
57	0xbe0ff98d	-0.1406004
58	0xbd9a604e	-0.075379
59	0x3d8acef4	0.067777544
60	0xbcce5189	-0.025185363
61	0xbe99af73	-0.3001667
62	0xbc86dd01	-0.016462805
63	0xbe009fbc	-0.12560934
64	0xbe30e24b	-0.17273824
65	0xbdee0552	-0.116221085
66	0xbcf234c5	-0.029566178
67	0xbead961a	-0.3390358
68	0xbe7b92e8	-0.24567759
69	0xbe53d06a	-0.20684972
70	0xbddc8a92	-0.10768618
71	0x3d4b308f	0.049606856
72	0x3e1d502a	0.15362611
73	0x3e84f9d6	0.2597186
74	0x3e39e2f0	0.18152976
75	0x3e92e2cf	0.28688666
76	0x3e2adfbe	0.16686913
77	0x3e79b88e	0.24386808
78	0x3cb0e19d	0.021591956
79	0x3d61d84c	0.055137917
80	0x3eca9a73	0.3957096
81	0x3da48140	0.08032465
82	0x3d253874	0.04033704
83	0xbe97fa08	-0.29682946
84	0xbe584809	-0.21121229
85	0xbe98c8b9	-0.2984064
86	0xbdee51a9	-0.11636669
87	0xbd607465	-0.054798502
88	0xbe4e2819	-0.20132484
89	0x3e1b8079	0.15185727
90	0xbd14ea44	-0.036356226
91	0xbe6e9a59	-0.23301066
92	0xbeb1cd7f	-0.34727094
93	0x3ad5d562	0.0016314203
94	0xbe8164dd	-0.25272265
95	0xbe935b8d	-0.28780785
96	0xbd774053	-0.06036408
97	0x3de4d429	0.11173279
98	0x3c27fbdf	0.010252922
99	0xbd23e356	-0.040011726
100	0xbc8e4611	-0.017367395
101	0x3c903d56	0.017607372
102	0x3e1b9d05	0.15196617
103	0x3e2bbdce	0.16771623
104	0xbe3ce476	-0.18446526
105	0x3e6eb18a	0.23309913
106	0xbdb4aec2	-0.08822395
107	0x3dcb9374	0.09940234
108	0x3dafb5f5	0.085796274
109	0x3c2646f3	0.010148752
110	0x3e56fa5d	0.20993944
111	0xbd37cee9	-0.04487506
112	0x3de5953c	0.11210105
113	0x3de505b7	0.11182731
114	0x3ef17b64	0.47164452
115	0xbc8cce20	-0.017188132
116	0x3e6bac7c	0.23015016
117	0xbd2d64bb	-0.042332392
118	0x3e6f6ddb	0.2338175
119	0xbdfb0167	-0.12256127
120	0x3e34a799	0.17642058
121	0x3ee9c678	0.45659232
122	0xbc9729ad	-0.01845249
123	0xbd4ba16f	-0.049714502
124	0xbb832943	-0.0040027215
125	0x3e030260	0.12793875
126	0x3dcfbda2	0.101435915
127	0x3d4b3cfb	0.049618702
128	0xbd00c036	-0.031433307
129	0xbe49a668	-0.19692385
130	0x3ea4cb06	0.32186145
131	0x3e491c81	0.1963978
132	0x3e8a5345	0.27016655
133	0xbe08c452	-0.1335614
134	0x3e06d52d	0.13167258
135	0xbda2f002	-0.07955934
136	0x3e7af0b3	0.24505882
137	0x3c9584fd	0.01825189
138	0x3ea6d2a2	0.32582575
139	0x3c0f224a	0.0087362025
140	0xbc25fd5c	-0.010131206
141	0x3e35b853	0.17746095
142	0x3e98e595	0.29862657
143	0x3e32e9d6	0.17472014
144	0xbde9d7cf	-0.11418115
145	0x3de09533	0.109659575
146	0xbdfb7392	-0.12277903
147	0x3c84ef7a	0.016227473
148	0xbe819fc3	-0.253172
149	0xbe13c527	-0.14430676
150	0x3d369f05	0.044585247
151	0xbd480cde	-0.048840396
152	0xbd0863a8	-0.033298165
153	0xbd00db8a	-0.03145937
154	0xbe4c50d3	-0.19952707
155	0xbdca75cc	-0.09885749
156	0x3e56dd88	0.20982945
157	0xbf013c7e	-0.5048293
158	0xbd1e3da6	-0.03863301
159	0x3da1dd30	0.07903516
160	0x3d079547	0.033101346
161	0xbdacef23	-0.08444049
162	0x3d099f4d	0.033599187
163	0x3e47d12d	0.19513388
164	0xbe42c22e	-0.19019386
165	0xbe28f840	-0.1650095
166	0x3c0c9553	0.008580524
167	0xbd79ca51	-0.06098396
168	0x3ea72f1a	0.32653123
169	0x3e74749a	0.23872605
170	0x3d65641c	0.056003675
171	0xbe0971f2	-0.13422373
172	0xbdbf9c43	-0.093559764
173	0x3e97feb8	0.29686522
174	0x3d91692c	0.07100138
175	0xbb5583e2	-0.003257983
176	0xbebb75cf	-0.36613318
177	0x3e1c5c70	0.15269637
178	0xbeca475d	-0.3950757
179	0xbe867e7d	-0.26268378
180	0xbe6b0aea	-0.22953382
181	0x3e593073	0.21209888
182	0x3bf89b9d	0.00758691
183	0x3e8090c7	0.25110456
184	0x3c0ea5c7	0.008706517
185	0x3e947d7e	0.29001993
186	0x3d9981a9	0.07495434
187	0x3e7aa10b	0.24475496
188	0xbe833615	-0.256272
189	0x3e88e545	0.2673742
190	0x3e6d97a5	0.23202379
191	0x3e65dbe6	0.22447166
192	0xbe6fe1e0	-0.23426008
193	0xbcc1c572	-0.02365372
194	0x3d908cc3	0.07058098
195	0xbe775307	-0.24152766
196	0x3ea2209f	0.31665513
197	0xbe65f23e	-0.2245569
198	0x3dd7b3aa	0.10532315
199	0x3da8d120	0.082430124
200	0xbd84cb84	-0.0648413
201	0xbed155a3	-0.40885648
202	0xbe9b1f11	-0.3029714
203	0xbe60590c	-0.21908969
204	0xbdf411ea	-0.11917479
205	0xbe25596d	-0.16147394
206	0x3b2b05d9	0.0026096015
207	0x3e6b619b	0.22986452
208	0xbe382a98	-0.17984998
209	0x3dcaf57e	0.09910105
210	0xbe7d97fc	-0.24765009
211	0xbe256a42	-0.16153815
212	0xbbf9ab74	-0.0076193158
213	0xbd97f328	-0.07419425
214	0xbe8b9b5f	-0.27266976
215	0x3cb77c30	0.022398084
216	0x3e470026	0.1943365
217	0xbde05b87	-0.109549575
218	0x3cfa3bf7	0.030546172
219	0xbea1d3ca	-0.31606895
220	0x3e8b9582	0.27262503
221	0xbc42c714	-0.011888284
222	0x3e407858	0.18795907
223	0x3d1efdcc	0.03881626
224	0x3db77206	0.08957295
225	0x3ea6c9fa	0.3257597
226	0xbe4ce2a4	-0.20008332
227	0x3e493036	0.19647297
228	0x3cc6c82b	0.02426537
229	0x3e268d30	0.16264796
230	0x3e96ff2e	0.29491562
231	0x3e160e92	0.14653996
232	0x3c55ac86	0.013041621
233	0x3ea102fb	0.31447586
234	0x3e5fe4f7	0.21864687
235	0xbe362890	-0.17788911
236	0x3d29934a	0.04140023
237	0xbc4e87b0	-0.012605593
238	0xbecdbbf4	-0.4018246
239	0xbe2dbb10	-0.1696589
240	0xbddc9c14	-0.10771957
241	0xbd5160fd	-0.051117886
242	0x3e1f7e3f	0.15575503
243	0x3e5c7abe	0.21531197
244	0xbe14b4bf	-0.14522074
245	0x3ecba019	0.39770582
246	0x3ed7ba53	0.42134342
247	0xbe66627b	-0.22498505
248	0x3e5522e9	0.20814098
249	0x3d86186b	0.06547626
250	0xbc675568	-0.0141194835
251	0x3e5c8f1c	0.21538967
252	0xbe741e7b	-0.23839752
253	0xbdecb089	-0.11557109
254	0x3c29d51a	0.010365749
255	0x3e0a05db	0.13478796

block3.bn1.weight f4 [80]
0	0x3f64340b	0.8914191
1	0x3f7938f0	0.97352505
2	0x3f83d4d6	1.0299327
3	0x3f7e6c73	0.9938423
4	0x3f7b9c67	0.98285526
5	0x3f86647c	1.0499415
6	0x3f866b9c	1.050159
7	0x3f81d6ca	1.0143673
8	0x3f870043	1.0546955
9	0x3f7d2392	0.988824
10	0x3f882dcc	1.0638976
11	0x3f84d777	1.0378255
12	0x3f72d1ff	0.9485168
13	0x3f82b161	1.0210382
14	0x3f795197	0.9739012
15	0x3f881f71	1.0634595
16	0x3f813977	1.0095662
17	0x3f73e1fe	0.9526671
18	0x3f6eb6dc	0.9324777
19	0x3f814a8a	1.0100873
20	0x3f80a382	1.0049899
21	0x3f60c354	0.8779805
22	0x3f80be34	1.0058045
23	0x3f8590d6	1.0434825
24	0x3f7eea15	0.9957593
25	0x3f8f870f	1.1213092
26	0x3f86edd1	1.0541326
27	0x3f82805a	1.019542
28	0x3f7cfdd9	0.9882484
29	0x3f7f81a2	0.9980718
30	0x3f7a4372	0.97759163
31	0x3f864b01	1.0491639
32	0x3f6deb0c	0.9293678
33	0x3f7b02f4	0.9805138
34	0x3f8067f1	1.003172
35	0x3f7913ba	0.97295725
36	0x3f782964	0.9693816
37	0x3f7d2376	0.98882234
38	0x3f870440	1.0548172
39	0x3f8422d3	1.0323128
40	0x3f87382c	1.0564017
41	0x3f5ad17e	0.8547591
42	0x3f734878	0.95032454
43	0x3f8200b9	1.015647
44	0x3f71bd9f	0.94429964
45	0x3f82835f	1.0196341
46	0x3f790068	0.97266245
47	0x3f804b6e	1.0023019
48	0x3f560157	0.83595794
49	0x3f76e7cf	0.9644746
50	0x3f83c2dc	1.0293841
51	0x3f792327	0.97319263
52	0x3f7e1258	0.9924674
53	0x3f743653	0.9539539
54	0x3f87eb7d	1.061874
55	0x3f75c863	0.9600889
56	0x3f81562f	1.0104426
57	0x3f5cf659	0.86313397
58	0x3f6ca63e	0.92441165
59	0x3f73cb5f	0.95232195
60	0x3f80b1a6	1.0054214
61	0x3f6d21a7	0.92629474
62	0x3f8601e7	1.046933
63	0x3f68ae3a	0.9089085
64	0x3f800000	1.0
65	0x3f800000	1.0
66	0x3f800000	1.0
67	0x3f800000	1.0
68	0x3f800000	1.0
69	0x3f800000	1.0
70	0x3f800000	1.0
71	0x3f800000	1.0
72	0x3f800000	1.0
73	0x3f800000	1.0
74	0x3f800000	1.0
75	0x3f800000	1.0
76	0x3f800000	1.0
77	0x3f800000	1.0
78	0x3f800000	1.0
79	0x3f800000	1.0
