snapshots/best_model2.pth (torch, 181730 bytes, 80 tensors)

input.weight f4 [32, 3, 1, 1]
0	0xbd18ba9a	-0.037287332
1	0x3d6978ed	0.05700009
2	0xbdcf02c9	-0.10107953
3	0xbd4c5a76	-0.049890958
4	0xbf03948b	-0.51398534
5	0xbe9d5368	-0.30727696
6	0x3e8ed92e	0.2790007
7	0x3ef91f45	0.4865667
8	0x3d0fb0a7	0.03508058
9	0x3f04a65d	0.5181635
10	0xbe96a50d	-0.294228
11	0xbde70223	-0.112797044
12	0x3dc99578	0.09842962
13	0x3deeca1c	0.11659643
14	0xbcbda537	-0.02315007
15	0xbee75299	-0.45180205
16	0xbe91a744	-0.28447926
17	0xbea3a2e8	-0.31960225
18	0xbc75e82f	-0.01500897
19	0x3df11174	0.11770907
20	0xbec319dd	-0.3810567
21	0xbec27896	-0.37982625
22	0xbe2704b8	-0.16310394
23	0xbcf579ab	-0.029965242
24	0xbe801f0f	-0.25023696
25	0x3ea90d47	0.33017942
26	0xbdb43dfc	-0.08800885
27	0xbeed3672	-0.463306
28	0x3e6051d3	0.21906213
29	0x3daa41cc	0.08313331
30	0xbd855ac4	-0.06511453
31	0x3dd6a813	0.10481276
32	0xbf1c9c0d	-0.61175615
33	0xbe4ac5b9	-0.19801988
34	0xbef8ca48	-0.48591828
35	0x3c8b4471	0.017000409
36	0x3edde52e	0.43338913
37	0x3e82ff14	0.25585234
38	0x3f0c479c	0.5479677
39	0x3dd926c2	0.106030956
40	0x3e83c6dc	0.25737655
41	0x3f0a399d	0.5399416
42	0xbf0279b7	-0.5096697
43	0x3e9d9b7a	0.30782682
44	0xbeab8ab6	-0.33504266
45	0x3edf8b99	0.43661192
46	0xbe4505d2	-0.19240502
47	0x3ea6c18b	0.32569537
48	0x3de42e19	0.11141605
49	0xbe85b36d	-0.26113454
50	0x3f1a18fc	0.60194373
51	0xbf0cddaa	-0.5502573
52	0x3f01f06f	0.507575
53	0x3eebc9c3	0.4605237
54	0xbe047610	-0.12935662
55	0xbf050e32	-0.51974785
56	0x3e409405	0.18806465
57	0x3ee314bc	0.44351757
58	0x3f129530	0.5725889
59	0xbea052b7	-0.31313106
60	0xbca479f9	-0.020077692
61	0x3f061519	0.5237594
62	0xbea52e90	-0.32262087
63	0x3eaf79a6	0.34272498
64	0x3db68a83	0.08913138
65	0x3e5b1d58	0.21397913
66	0xbe4e9f19	-0.20177878
67	0xbf108532	-0.5645324
68	0x3c14a9c2	0.009073677
69	0xbe9bc5c8	-0.30424333
70	0xbc1fd759	-0.009755933
71	0x3e66498b	0.22488992
72	0x3ee09137	0.4386079
73	0x3f05df43	0.52293795
74	0x3e0d9da1	0.13829662
75	0xbd787157	-0.060654964
76	0xbf1492fb	-0.58036774
77	0x3ed61160	0.4181013
78	0xbe3ec328	-0.18629134
79	0xbdd51a00	-0.1040535
80	0xbebf0120	-0.37305546
81	0xbe63bdd2	-0.2224038
82	0x3e282d38	0.164235
83	0xbe431d70	-0.19054198
84	0x3d62cf20	0.05537331
85	0xbede4c2d	-0.43417493
86	0x3e64db0c	0.22349185
87	0x3e3888dc	0.18020958
88	0xbea4cc32	-0.3218704
89	0xbf027d72	-0.50972664
90	0x3e3251e5	0.17414053
91	0xbc859848	-0.016307965
92	0x3eebacdf	0.46030328
93	0xbda25b72	-0.07927598
94	0xbd83f6f8	-0.0644359
95	0xbeb06e21	-0.34459022

bn_input.weight f4 [32]
0	0x3f7b9bee	0.98284805
1	0x3f7f71ee	0.9978322
2	0x3f7522c7	0.9575619
3	0x3f7fdcf2	0.9994651
4	0x3f791908	0.9730382
5	0x3f780e17	0.968965
6	0x3f797df9	0.97457844
7	0x3f822e70	1.0170422
8	0x3f79efad	0.9763134
9	0x3f736772	0.9507972
10	0x3f75cbc7	0.96014065
11	0x3f765580	0.9622421
12	0x3f7a7e6f	0.9784917
13	0x3f7d65cd	0.9898346
14	0x3f7599f8	0.9593806
15	0x3f7ff3e8	0.99981546
16	0x3f7f5b66	0.9974884
17	0x3f7939c1	0.9735375
18	0x3f804193	1.0020012
19	0x3f7e18b2	0.9925643
20	0x3f8026cc	1.001184
21	0x3f8008f5	1.0002733
22	0x3f81851b	1.0118746
23	0x3f77f2ad	0.9685467
24	0x3f758817	0.9591078
25	0x3f76cd5d	0.9640711
26	0x3f824606	1.017762
27	0x3f7717cf	0.96520704
28	0x3f7a5237	0.977817
29	0x3f757e3f	0.9589576
30	0x3f80d954	1.0066323
31	0x3f81136f	1.0084056

bn_input.bias f4 [32]
0	0x3c6f245a	0.014596069
1	0x3b7934ff	0.0038025973
2	0x3d2992cb	0.04139976
3	0x3b4597f1	0.0030150379
4	0xbb37b8f9	-0.0028033836
5	0x3d2f87f3	0.04285426
6	0x3cd3e8b1	0.025867792
7	0xbc66a2c0	-0.014076889
8	0x3c909761	0.017650308
9	0x3d4f57af	0.05062073
10	0x3d54acc9	0.051922593
11	0x3d19648a	0.037449397
12	0x3c81367e	0.015773054
13	0x3c4fdcc2	0.01268691
14	0x3d1cfd95	0.038327772
15	0x3b2955a5	0.0025838402
16	0x3b93107a	0.004488048
17	0x3cb0c5d1	0.021578701
18	0xbb720eb6	-0.0036935038
19	0xbc814154	-0.015778221
20	0xba81ed66	-0.0009912669
21	0x3c84df56	0.016219776
22	0xbc92990e	-0.017895248
23	0x3d0433aa	0.032275833
24	0x3cb5eedd	0.022208625
25	0x3d276106	0.040864013
26	0x3be31123	0.006929533
27	0x3c3fa60c	0.0116973035
28	0x3cad5c7b	0.021162262
29	0x3d0961b7	0.033540454
30	0xbb43a27c	-0.0029851487
31	0xbc76947c	-0.01505005

bn_input.running_mean f4 [32]
0	0x3c9a38c6	0.0188259
1	0x3dae25dd	0.085033156
2	0xbe4a9508	-0.19783413
3	0xbe8131f0	-0.25233412
4	0xbd82703f	-0.063690655
5	0x3e917f64	0.28417504
6	0x3c389c95	0.011267801
7	0x3e64af64	0.22332531
8	0x3de0f7fe	0.10984801
9	0x3e6bd928	0.23032057
10	0x3d454e50	0.048170388
11	0x3e1b57eb	0.15170257
12	0xbe8f43c4	-0.2798139
13	0xbdce3eb3	-0.10070553
14	0x3e86743a	0.2626055
15	0xbe6e6ef8	-0.23284519
16	0xbd710eb7	-0.058851924
17	0x3e73b36c	0.23798913
18	0x3de366eb	0.111036144
19	0xbe910eb3	-0.28331527
20	0xbccc1c09	-0.024915712
21	0xbe4fff21	-0.20312168
22	0x3e24ed4a	0.16106144
23	0x3e22c67a	0.15896025
24	0xbe95851b	-0.29203114
25	0x3d90698e	0.07051383
26	0x3dff3989	0.12462146
27	0x3de83946	0.11339049
28	0x3a828201	0.0009956957
29	0xbd4fa7b6	-0.05069705
30	0xbde1b811	-0.11021436
31	0x3d7c92b1	0.061663333

bn_input.running_var f4 [32]
0	0x3a89158d	0.0010458693
1	0x3e30bdd7	0.17259918
2	0x3dfedd28	0.12444526
3	0x3c10086d	0.008791071
4	0x3bd9bffd	0.0066452012
5	0x3e47dfda	0.19518986
6	0x3c89c169	0.016815858
7	0x3d53b11d	0.05168258
8	0x3b514bb6	0.0031935996
9	0x3bcb3931	0.006201886
10	0x3d8ab003	0.06771853
11	0x3db98d33	0.09060135
12	0x3e8dffac	0.27734125
13	0x3e3111ce	0.17291948
14	0x3d0a19bc	0.03371595
15	0x3d2fb6c1	0.042898897
16	0x3d1c1135	0.038102347
17	0x3dc44111	0.09582723
18	0x3d42f0ca	0.047592916
19	0x3dba2f9a	0.090911105
20	0x3c514bae	0.012774391
21	0x3d8a3303	0.06748011
22	0x3df3ab49	0.118979044
23	0x3b884b03	0.0041593327
24	0x3e649830	0.2232368
25	0x3c894de4	0.016760774
26	0x3da94f87	0.08267122
27	0x3bef42ee	0.00730168
28	0x3c1fe1f5	0.009758462
29	0x3df3dc25	0.119072236
30	0x3d905489	0.07047374
31	0x3d464c13	0.048412394

block1.dw.weight f4 [32, 1, 3, 3]
0	0xbdb60920	-0.08888459
1	0xbe6b7ea8	-0.22997534
2	0x3dd35ae8	0.10320073
3	0x3d930a43	0.07179692
4	0xbe7aa00f	-0.2447512
5	0xbd8e464c	-0.06947002
6	0xbe281727	-0.16415082
7	0xbe56de67	-0.20983277
8	0x3e40ec11	0.18840052
9	0xbd91a560	-0.07111621
10	0x3da124da	0.07868357
11	0x3eb394e3	0.3507453
12	0xbe95e9d3	-0.29279956
13	0x3e8838f2	0.26605946
14	0x3e5086e0	0.2036395
15	0x3e2b5f79	0.16735639
16	0x3e9a5fce	0.30151218
17	0xbcc5032d	-0.024049366
18	0x3e503965	0.20334394
19	0x3c8ccb95	0.01718692
20	0x3d8f5efd	0.070005395
21	0xbe4d4eee	-0.2004964
22	0xbe010e80	-0.12603188
23	0xbe8a78a4	-0.27045166
24	0x3dea75cb	0.114482485
25	0xbe645430	-0.2229774
26	0xbe517418	-0.20454443
27	0xbe434001	-0.19067384
28	0xbe8e6d52	-0.2781778
29	0xbde35d74	-0.11101809
30	0xbe1ae073	-0.15124683
31	0x3e2b4fdb	0.16729681
32	0x3d349ac9	0.044092927
33	0x3e10dc27	0.14146481
34	0xbcf9e0ca	-0.030502696
35	0xbeb164b3	-0.3464714
36	0xbe907b46	-0.2821905
37	0x3e903df7	0.28172275
38	0x3ddeb244	0.10873845
39	0xbd005b09	-0.031336818
40	0x3e201903	0.15634541
41	0xbe5f7073	-0.2182024
42	0x3e38a40b	0.18031327
43	0xbe4f1f01	-0.20226671
44	0x3eb43e0a	0.35203582
45	0xbd89cbb4	-0.067283064
46	0x3b988908	0.0046550073
47	0x3e3219fe	0.17392728
48	0xbe8c858f	-0.27445647
49	0x3e60e346	0.21961698
50	0x3d94ac09	0.072593756
51	0xbd9b5cde	-0.075860724
52	0x3e1d552d	0.15364523
53	0x3dca396c	0.098742336
54	0x3e168416	0.14698824
55	0xbe241b00	-0.16025925
56	0x3e073d08	0.13206875
57	0xbe4e0d5d	-0.20122285
58	0x3da34532	0.07972182
59	0x3e918545	0.2842199
60	0xbeb505b7	-0.35355923
61	0xbe33f0bc	-0.17572302
62	0xbe5372e2	-0.20649293
63	0x3e8e29a6	0.2776615
64	0x3d9d2da3	0.0767472
65	0xbe1e52e4	-0.15461308
66	0x3ea9f537	0.33194897
67	0x3caaef34	0.020866014
68	0x3e023bb8	0.12718093
69	0x3e2f3d57	0.17113243
70	0xbe21f8ee	-0.15817615
71	0xbd209f8a	-0.03921465
72	0xbe883ca6	-0.2660877
73	0x3d67c4ac	0.056584045
74	0x3d074658	0.03302607
75	0xbe4d5c0f	-0.20054649
76	0xbd99cc72	-0.07509698
77	0xbe9e0953	-0.3086649
78	0x3d769f2d	0.060210396
79	0xbd953fec	-0.07287583
80	0xbde99305	-0.11404995
81	0x3e991379	0.2989767
82	0xbe2e695b	-0.17032377
83	0xbdbf2743	-0.093336605
84	0x3d849946	0.06474547
85	0x3e813691	0.25236943
86	0xbe74141a	-0.23835793
87	0x3e22c283	0.15894513
88	0x3dd9a2a6	0.10626726
89	0xbd93ca93	-0.07216372
90	0xbe3e4083	-0.18579297
91	0xbe7ff305	-0.24995048
92	0x3d99e476	0.075142786
93	0xbd406f14	-0.046980932
94	0x3e90c715	0.28276888
95	0x3c80f812	0.01574329
96	0x3e89e81a	0.26934892
97	0x3ea63a13	0.32466182
98	0xbe571f2d	-0.21007986
99	0xbe854333	-0.2602783
100	0xbd4a6239	-0.04941008
101	0x3e8ca7f0	0.27471876
102	0xbdc85861	-0.09782482
103	0xbe3afea8	-0.18261206
104	0xbe7523de	-0.23939463
105	0x3d1a6ce3	0.0377015
106	0xbe9118b8	-0.2833917
107	0x3e6f67a6	0.23379382
108	0xbe1de981	-0.15421106
109	0x3dde8043	0.10864308
110	0x3c9f30c2	0.01943243
111	0xbe90f85b	-0.2831448
112	0x3d2b8681	0.04187632
113	0xbeab2fd6	-0.33434933
114	0xbe8b67a0	-0.27227497
115	0x3e93caea	0.2886575
116	0xbaa4e23b	-0.0012579629
117	0x3dc24429	0.09485657
118	0xbe0d416a	-0.13794485
119	0xbe9c6116	-0.3054282
120	0x3dad27ea	0.08454879
121	0x3e97d489	0.2965434
122	0xbddbe209	-0.10736472
123	0x3e9bf08b	0.30456957
124	0x3e134d16	0.14384875
125	0xbd0e6121	-0.034760598
126	0x3eb4afe7	0.35290453
127	0xbe27996c	-0.1636712
128	0xbe3c4119	-0.18384208
129	0x3e666dc0	0.22502804
130	0x3d80bbff	0.062858574
131	0xbe87ec4a	-0.26547462
132	0x3e71baf5	0.23606475
133	0x3e1077b7	0.14108168
134	0x3e9f5a18	0.31123424
135	0xbe8f6138	-0.2800386
136	0xbea04d2e	-0.31308883
137	0x3e3a3b34	0.18186647
138	0xbca5b5b7	-0.02022825
139	0xbe19c4f5	-0.1501654
140	0x3e1fb2b5	0.15595515
141	0xbd470ccd	-0.048596192
142	0x3dd4186b	0.1035622
143	0x3e28c90b	0.16482942
144	0xbe67e452	-0.22645691
145	0xbdfaa843	-0.122391246
146	0x3e8621b4	0.26197588
147	0xbdea4c6b	-0.11440357
148	0x3eb7c7bf	0.35894582
149	0x3e09d2b9	0.1345929
150	0xbd6b0686	-0.057379268
151	0x3e121800	0.14266968
152	0x3e502f5d	0.20330568
153	0x3e11b7a3	0.14230208
154	0x3d016a52	0.031595536
155	0x3e7bd7ad	0.24593993
156	0xbe4ea0d5	-0.2017854
157	0xbe861a60	-0.26191998
158	0xbdec417b	-0.11535927
159	0x3d65a023	0.05606092
160	0x3e8db369	0.27675942
161	0x3e5ed194	0.21759635
162	0xbdd40d88	-0.103541434
163	0xbe196b61	-0.14982368
164	0x3e9d0b31	0.306726
165	0x3d77aa13	0.06046493
166	0x3e14bb14	0.1452449
167	0xbe19869d	-0.14992757
168	0x3e310d59	0.17290248
169	0x3eb65b6c	0.35616624
170	0x3dc9f4c8	0.098611414
171	0xbc96d628	-0.018412665
172	0xbe5ac005	-0.21362312
173	0xbd9d4403	-0.07678988
174	0x3dacaeb8	0.084317625
175	0x3e182f53	0.14861803
176	0x3e83b794	0.25725996
177	0x3e0b4a6e	0.13602611
178	0xbe847ada	-0.25874978
179	0x3eb629d3	0.35578784
180	0xbe89f227	-0.2694256
181	0x3e605d7f	0.21910666
182	0xbda68140	-0.08130121
183	0x3e435229	0.1907431
184	0x3e90c8b0	0.28278112
185	0xbe74e205	-0.23914345
186	0x3ebd42e1	0.36965087
187	0xbe4391b0	-0.19098544
188	0x3d6c8686	0.05774548
189	0x3e9a0a4b	0.30085978
190	0x3eb08dfd	0.34483328
191	0xbde8dd03	-0.1137028
192	0x3e256395	0.16151269
193	0xbdedeb96	-0.116172
194	0xbddd182d	-0.10795627
195	0x3e7923b4	0.24330026
196	0x3b5c4d57	0.0033615434
197	0xbded926e	-0.11600195
198	0x3ce6864d	0.028140211
199	0x3e622957	0.22086082
200	0xbd18709a	-0.03721676
201	0x3e5a9e6b	0.21349494
202	0x3e39c016	0.18139681
203	0x3e1a5f86	0.15075502
204	0xbe1ab8c6	-0.15109548
205	0x3ea1590e	0.31513256
206	0xbdb00b12	-0.085958615
207	0x3d581406	0.05275347
208	0xbdeec84d	-0.11659298
209	0x3e95c914	0.29254973
210	0xbe877956	-0.2645976
211	0xbe0ea97a	-0.13931838
212	0x3ea97231	0.33094934
213	0xbdabf4d7	-0.08396309
214	0x3e91c564	0.2847091
215	0xbda46f0d	-0.08028994
216	0x3dedf97d	0.11619852
217	0x3cab79d9	0.020932125
218	0x3e16bd06	0.14720544
219	0x3e17d818	0.14828527
220	0xbe7a1b58	-0.24424493
221	0xbe41220c	-0.18860644
222	0xbe9549c8	-0.29157853
223	0x3e84a6d3	0.25908527
224	0xbe790c4b	-0.24321096
225	0x3dd3e48f	0.103463285
226	0x3eb8e0ce	0.36109012
227	0xbe9e74ef	-0.30948588
228	0xbe1e6ab8	-0.15470397
229	0x3e80cdba	0.25156957
230	0x3ea2018d	0.31641808
231	0xbd312e8a	-0.043257274
232	0x3cb6d0a7	0.02231629
233	0xbe2e7416	-0.17036471
234	0x3e7c1324	0.24616677
235	0x3def4271	0.116825946
236	0xbe3563e2	-0.17713884
237	0xbe236088	-0.15954792
238	0xbd7e6b3b	-0.06211398
239	0xbe8f1a4f	-0.2794976
240	0xbe2ecb9d	-0.1706986
241	0x3e93a61e	0.28837675
242	0xbe6a69b8	-0.22891891
243	0xbd6a1a39	-0.057153914
244	0x3ea7e1f6	0.32789582
245	0xbe9b64c0	-0.30350304
246	0x3dbfa055	0.09356753
247	0x3e04b6af	0.12960313
248	0xbe0d4267	-0.13794862
249	0xbe97d8e7	-0.2965767
250	0xbe743328	-0.2384764
251	0xbdeb24da	-0.11481638
252	0xbe1318c3	-0.14364915
253	0xbd5fd81e	-0.054649465
254	0xbe9ade3e	-0.30247682
255	0xbe66674d	-0.22500344

block1.bn1.weight f4 [32]
0	0x3f746aea	0.9547564
1	0x3f83a603	1.0285038
2	0x3f80d211	1.0064107
3	0x3f79a437	0.97516197
4	0x3f7c3198	0.98513174
5	0x3f7aea16	0.98013437
6	0x3f7ca7e3	0.98693675
7	0x3f83c063	1.0293087
8	0x3f7b0200	0.98049927
9	0x3f722fa4	0.94603944
10	0x3f784758	0.9698386
11	0x3f83780d	1.0271012
12	0x3f814210	1.0098286
13	0x3f78434d	0.9697769
14	0x3f763ba5	0.9618476
15	0x3f73c775	0.9522622
16	0x3f7e64e4	0.99372697
17	0x3f80f08c	1.0073409
18	0x3f836269	1.0264407
19	0x3f7f7934	0.99794316
20	0x3f7c2395	0.98491794
21	0x3f7a2c37	0.97723716
22	0x3f83fa47	1.0310754
23	0x3f73adf3	0.951873
24	0x3f7bdbd3	0.983823
25	0x3f7ba29d	0.98295003
26	0x3f761c03	0.9613649
27	0x3f7847c9	0.96984535
28	0x3f7f3c31	0.9970122
29	0x3f7ceba3	0.98797053
30	0x3f8199df	1.0125083
31	0x3f846220	1.0342445

block1.bn1.bias f4 [32]
0	0x3b288ced	0.0025718764
1	0x3cdb7e7e	0.026793715
2	0x3bb565c5	0.0055358135
3	0xbc64ec58	-0.013972364
4	0xbcd69688	-0.026194826
5	0xbc12e829	-0.008966484
6	0x3ccae5a1	0.024767699
7	0x3c794bb8	0.015215807
8	0x3cac2e2b	0.021018108
9	0xbd1e9ffa	-0.038726784
10	0x3c4fd81f	0.012685805
11	0xbbcb43e2	-0.0062031606
12	0x3ccabc1a	0.024747897
13	0xb9aec0f7	-0.00033331636
14	0xbcdaa62c	-0.026690565
15	0xbc97ba71	-0.01852152
16	0x3a7fd4fd	0.0009759216
17	0x3c97abd3	0.01851455
18	0x3cb0fd92	0.021605287
19	0xbd064ea6	-0.03278985
20	0x3c2d0741	0.0105608115
21	0xbc2df615	-0.010617753
22	0x3cc40d8a	0.023932237
23	0xbd019863	-0.031639468
24	0x3c8650ae	0.016395893
25	0x3c373320	0.011181623
26	0x3c301d91	0.010749237
27	0x3cc348dc	0.023838453
28	0x3b6afd1b	0.003585643
29	0xbc01ebce	-0.007929755
30	0x3c0f65f1	0.008752332
31	0x3d07beb4	0.033140853

block1.bn1.running_mean f4 [32]
0	0xbddb0d4d	-0.10695896
1	0x3e2787e7	0.16360436
2	0xbddc0157	-0.10742443
3	0xbdfceb48	-0.12349564
4	0x3d5b8f52	0.053603478
5	0x3d5f6f27	0.054549363
6	0xbd9e8692	-0.07740511
7	0x3ddb633e	0.10712288
8	0xbe166a13	-0.14688902
9	0x3d57b499	0.052662466
10	0x3d4b93db	0.049701553
11	0xbdc91129	-0.09817726
12	0xbdc7e4f5	-0.09760467
13	0x3d6ac091	0.057312552
14	0x3dfaa92f	0.122393005
15	0xbd0c8a41	-0.034311537
16	0x3dc6c4c2	0.09705497
17	0x3d83f695	0.06443516
18	0x3df787f2	0.120864764
19	0x3d846578	0.06464666
20	0x3d674743	0.056464445
21	0x3dd50864	0.10401991
22	0x3e0a7afa	0.13523474
23	0x3d3c55c0	0.045980215
24	0xbd39dc08	-0.045375854
25	0x3d88f168	0.066866696
26	0xbd979bc4	-0.07402757
27	0xbdc20b21	-0.09474779
28	0xbe12c502	-0.14332965
29	0xbd87c024	-0.06628445
30	0x3dda68bf	0.1066451
31	0x3e2a4721	0.16628696

block1.bn1.running_var f4 [32]
0	0x3db17e53	0.086666726
1	0x3e67b647	0.22628127
2	0x3e03d47a	0.12874022
3	0x3dd12944	0.10212949
4	0x3d2f6bc8	0.042827398
5	0x3cd61272	0.026131842
6	0x3d5ab067	0.053390887
7	0x3db62368	0.08893472
8	0x3e7987d5	0.24368222
9	0x3d2c277b	0.04202984
10	0x3cd60691	0.026126178
11	0x3d95682f	0.07295262
12	0x3ddeda77	0.108815126
13	0x3d6712f2	0.056414552
14	0x3dce2210	0.10065091
15	0x3d355e50	0.044279397
16	0x3e026def	0.12737249
17	0x3d36fd28	0.044675022
18	0x3df2761b	0.11838933
19	0x3d8a7b73	0.06761827
20	0x3d3a380b	0.045463603
21	0x3e106711	0.14101817
22	0x3e1fe4b5	0.15614589
23	0x3d16de77	0.036833253
24	0x3cfc0b44	0.03076709
25	0x3d0b7e8b	0.034056228
26	0x3d4008db	0.046883445
27	0x3d85a0ef	0.06524836
28	0x3e2c438c	0.16822642
29	0x3d262a4c	0.04056768
30	0x3e0e02d5	0.13868268
31	0x3e752a94	0.23942024

block1.pw.weight f4 [64, 32, 1, 1]
0	0xbe186f2d	-0.1488616
1	0x3dd81a1d	0.10551856
2	0xbe1f2775	-0.15542395
3	0x3dbe0e69	0.09280092
4	0x3e057bc6	0.13035497
5	0xbe2e1a5e	-0.17002246
6	0xbd803198	-0.06259459
7	0x3d4d6aba	0.05015061
8	0xbdd8cfd1	-0.10586513
9	0x3d1c94ea	0.038227953
10	0x3db41e39	0.08794827
11	0xbe060abf	-0.13090037
12	0x3d598762	0.053107627
13	0x3da9f040	0.08297777
14	0x3cdb24e6	0.026750993
15	0xbdcecde2	-0.10097863
16	0xbe1a6fdc	-0.15081733
17	0xbdf63e51	-0.12023605
18	0x3d887fbc	0.066649884
19	0xbe2dab64	-0.16959912
20	0xbe0b4e3b	-0.13604061
21	0xbc803531	-0.015650364
22	0x3df4d3b5	0.119544424
23	0xbdd5cb67	-0.104391865
24	0x3e180997	0.14847408
25	0xbdd374a1	-0.103249796
26	0xbdc98a8f	-0.09840881
27	0xbd364a7a	-0.04450462
28	0xbdf029a4	-0.11726692
29	0xbd655975	-0.055993516
30	0xbda4c5de	-0.08045553
31	0x3e397fb1	0.18115117
32	0xbced611c	-0.02897697
33	0xbe1bb20e	-0.15204641
34	0xbe2ab863	-0.166719
35	0xbcaae097	-0.020859046
36	0xbe2707d2	-0.16311577
37	0x3e0b0ed2	0.13579872
38	0x3da5d5f5	0.0809745
39	0xbe4e98dc	-0.20175499
40	0xbe03d52a	-0.12874284
41	0x3c2862ab	0.0102774305
42	0xbdd09772	-0.10185136
43	0x3e1ceb67	0.15324174
44	0xba5096e2	-0.00079570536
45	0xbdb72eab	-0.08944448
46	0x3d148b41	0.036265615
47	0xbbb290b5	-0.0054493793
48	0xbd53e04e	-0.051727585
49	0x3cc920ae	0.024551716
50	0x3d88d1d0	0.066806436
51	0x3c5b618d	0.013389957
52	0x3dc2f895	0.095200695
53	0xbc4054e2	-0.011738988
54	0xbbb9247c	-0.005650101
55	0x3dfd88cc	0.123796076
56	0xbd3be055	-0.045868237
57	0x3de39abc	0.111134976
58	0x3dc4d08b	0.09610089
59	0x3cdcee77	0.026969178
60	0x3dcd7a5d	0.100331046
61	0x3d30a347	0.043124463
62	0xbcb8d814	-0.022563972
63	0xbd1d800c	-0.038452193
64	0xbdc39a64	-0.09550932
65	0x3c06d6a7	0.008229888
66	0x3d7f17d9	0.062278602
67	0x3d8ce771	0.068800814
68	0xbdcbb6de	-0.099469885
69	0xbd95dd0b	-0.07317551
70	0x3e20744c	0.15669364
71	0x3e37a56e	0.179342
72	0xbde7aabe	-0.11311863
73	0xbd2dcc96	-0.042431436
74	0x3e326c07	0.17424022
75	0x3dc0bc24	0.09410885
76	0x3e00f232	0.1259239
77	0xbb5b68b6	-0.003347916
78	0xbbcf7b97	-0.0063318717
79	0xbce1bcb6	-0.027555805
80	0x3da77873	0.08177271
81	0xbd9fabec	-0.07796463
82	0x3e12db93	0.14341573
83	0xbe026dae	-0.12737152
84	0x3cc087a2	0.023502175
85	0xbdab92c0	-0.083776
86	0x3e1d223f	0.15345095
87	0x3dcc34ff	0.09971046
88	0x3df8b409	0.12143714
89	0xbda68558	-0.08130902
90	0xbe043269	-0.12909855
91	0xbdad49d2	-0.08461346
92	0x3daa22c3	0.083074115
93	0x3c010635	0.007875015
94	0x3d72b6fb	0.059256535
95	0x3dea8024	0.11450222
96	0x3dd0357e	0.10166453
97	0xbe1892b7	-0.14899717
98	0x3dff6b14	0.124715954
99	0xbcf82c78	-0.030294642
100	0x3d01847f	0.0316205
101	0x3e242c26	0.16032466
102	0xbe263d1f	-0.16234253
103	0xbd613b9b	-0.054988485
104	0x3daecb76	0.08534901
105	0xbbac070b	-0.005249863
106	0x3abd47ae	0.0014440918
107	0x3d99ecf9	0.07515902
108	0x3e3225e7	0.17397271
109	0xbe3709e1	-0.17874862
110	0xbdf64415	-0.12024704
111	0x3d9d19c3	0.07670929
112	0xbe09e7b2	-0.13467291
113	0xbe02a661	-0.12758781
114	0xbdfd1289	-0.12357051
115	0xbb9ba243	-0.0047495677
116	0xbce343a5	-0.027742216
117	0x3d1f607e	0.03891038
118	0x3e42a224	0.19007164
119	0xbe1a3f6f	-0.1506326
120	0x3da7be47	0.081905894
121	0x3da4eb08	0.08052641
122	0x3d99d0bc	0.07510516
123	0x3d75f347	0.06004646
124	0x3c669055	0.014072497
125	0x3d4e6560	0.050389647
126	0xbdcb91f4	-0.09939948
127	0x3e58d09f	0.21173333
128	0x3dd5ecdb	0.10445567
129	0xbdb30841	-0.08741809
130	0xbc9a9ada	-0.018872667
131	0xbd5dd108	-0.054154426
132	0xbb6f2e2b	-0.0036496024
133	0xbe1576a1	-0.14596035
134	0x3e0b0e2f	0.1357963
135	0xbd51a4c0	-0.05118251
136	0x3da3647f	0.079781525
137	0xbdcb1d82	-0.099177375
138	0xbe2195c7	-0.15779792
139	0xbcd7ba2c	-0.02633389
140	0xbc50010d	-0.012695563
141	0x3da28ac0	0.07936621
142	0x3c199841	0.009374679
143	0xbdc1a3ab	-0.09455045
144	0xbd7f3f3c	-0.062316164
145	0xbd1ceb4b	-0.03831033
146	0x3db1d77d	0.08683679
147	0xbd341555	-0.043965656
148	0xbc2b2bc3	-0.010447445
149	0xbd808feb	-0.0627745
150	0xbd4d08a3	-0.050057065
151	0x3ddf91e8	0.10916501
152	0xbd0f3dbf	-0.034970995
153	0x3d85fd75	0.06542484
154	0x3d7dd617	0.06197175
155	0x3cfb10a7	0.030647589
156	0xbe02a940	-0.12759876
157	0x3df6d3a9	0.1205209
158	0x3e2cd978	0.16879833
159	0xbd4e8d87	-0.05042794
160	0xbac7dec4	-0.0015248884
161	0x3e407d82	0.18797877
162	0x3da8dc10	0.082450986
163	0xbe2993c2	-0.16560271
164	0x3b4a4c7f	0.003086835
165	0xbc994e02	-0.018713955
166	0x3db67969	0.08909876
167	0xbd91cb50	-0.07118857
168	0x3e064804	0.1311341
169	0x3d75f2d2	0.060046025
170	0x3d82bcbd	0.06383655
171	0x3df3d60a	0.11906059
172	0x3d0e3904	0.034722343
173	0xbe02ecae	-0.12785599
174	0x3dcbe6ec	0.09956154
175	0x3e00da1c	0.12583202
176	0xbd2bf9d5	-0.041986305
177	0xbe38311e	-0.17987487
178	0x3d2c0996	0.04200133
179	0x394d4619	0.00019576437
180	0x3d42d9ef	0.04757112
181	0x3ddb2b03	0.10701563
182	0xbe1f5b01	-0.15562059
183	0x3dc3cfd8	0.095611274
184	0x3e3025f5	0.1720198
185	0x3d201d5f	0.03909051
186	0x3cd72fdc	0.026267938
187	0xbda1e500	-0.079050064
188	0xbddb5420	-0.10709405
189	0xbda83589	-0.08213336
190	0xbe204bcc	-0.15653914
191	0x3e174744	0.1477328
192	0xbd6e9748	-0.05824974
193	0x3ddd7b20	0.108145
194	0x3d920c5d	0.07131264
195	0xbd810076	-0.06298916
196	0xbdf3915d	-0.1189296
197	0xbdc72770	-0.09724319
198	0x3cbedd62	0.023298923
199	0xbdb07ba5	-0.08617333
200	0xbdebbcb2	-0.115106
201	0x3da7d787	0.081954055
202	0x3dbf35b6	0.093364164
203	0xbe033913	-0.12814741
204	0x3cb0b49b	0.021570494
205	0x3e038417	0.12843357
206	0xbdc0e2d3	-0.09418263
207	0xbe1a1e66	-0.15050659
208	0xbd84d80a	-0.06486519
209	0xbe24c16b	-0.16089408
210	0x3e0dd4a6	0.1385065
211	0x3e25df5d	0.16198488
212	0x3d0ad95e	0.033898704
213	0xbd7a32ba	-0.061083533
214	0x3d74684e	0.059669785
215	0x3d3d15e5	0.04616346
216	0x3d3af20a	0.045640983
217	0x3e28442f	0.1643226
218	0x3e0afdda	0.13573399
219	0xbe0ce5e6	-0.13759574
220	0xbe1a799b	-0.15085451
221	0xbe1b4b37	-0.15165411
222	0xbc21739b	-0.009854223
223	0xbd29058c	-0.041265056
224	0xbd152f7a	-0.03642223
225	0x3e3949d5	0.18094571
226	0x3df5a45f	0.11994242
227	0xbe2c92e4	-0.1685291
228	0x3d2988e8	0.04139033
229	0xbca3d881	-0.020000698
230	0xbdec5511	-0.11539663
231	0x3e2dc059	0.16967906
232	0x3defe68d	0.11713896
233	0x3ce2f5c6	0.027705085
234	0x3d54e5bf	0.051976915
235	0xbd90d5b1	-0.070720084
236	0xbd5e42dc	-0.05426298
237	0x3d227c50	0.039669335
238	0xbc09a96e	-0.008402212
239	0xbe0f5f95	-0.14001305
240	0x3cd9ed32	0.026602361
241	0xbdc61941	-0.096727856
242	0xbcafa161	-0.021439256
243	0x3e346af0	0.17618918
244	0x3e110dfc	0.14165491
245	0x3e3e26a0	0.18569422
246	0xbdb967f2	-0.09053029
247	0x3b61d338	0.0034458172
248	0x3e356fc1	0.17718412
249	0x3e1ba08e	0.15197966
250	0xbe17ed5c	-0.14836639
251	0x3d05959d	0.032613385
252	0x3c22962c	0.009923499
253	0x3e24b554	0.16084796
254	0xbd5aa94b	-0.053384107
255	0x3d212f88	0.03935197

block1.bn2.weight f4 [64]
0	0x3f4965f0	0.7867117
1	0x3f75422f	0.95804113
2	0x3f761329	0.96122986
3	0x3f7afea7	0.9804482
4	0x3f6de043	0.9292032
5	0x3f6e2c20	0.9303608
6	0x3f6b9469	0.9202333
7	0x3f58a7e5	0.84631187
8	0x3f5433c9	0.8289152
9	0x3f5f909d	0.8733004
10	0x3f4849b6	0.78237474
11	0x3f72a240	0.94778824
12	0x3f6ace67	0.91721195
13	0x3f54020f	0.8281564
14	0x3f7047e2	0.93859684
15	0x3f7b3a11	0.9813548
16	0x3f68bdb9	0.90914494
17	0x3f738e8b	0.9513938
18	0x3f7cfb40	0.9882088
19	0x3f7654a5	0.9622291
20	0x3f68eedb	0.90989465
21	0x3f4f0148	0.8086133
22	0x3f5aae9e	0.85422695
23	0x3f549aeb	0.83048886
24	0x3f553474	0.8328316
25	0x3f7580a7	0.9589943
26	0x3f67936c	0.9045932
27	0x3f7a5e46	0.978001
28	0x3f56cee7	0.8390946
29	0x3f79e06e	0.9760808
30	0x3f5d80c0	0.8652458
31	0x3f7b6415	0.9819959
32	0x3f75fc52	0.96088135
33	0x3f777f9d	0.966791
34	0x3f4ef3e9	0.8084093
35	0x3f7c38bf	0.9852409
36	0x3f4f36bd	0.809429
37	0x3f68e143	0.9096872
38	0x3f72dc7b	0.94867676
39	0x3f5f2c97	0.87177414
40	0x3f56365b	0.8367669
41	0x3f6113eb	0.8792102
42	0x3f75033b	0.95708054
43	0x3f6fd47e	0.9368361
44	0x3f795f45	0.97410995
45	0x3f5d5355	0.8645528
46	0x3f5f50d0	0.87232685
47	0x3f60c609	0.8780218
48	0x3f636ef9	0.88841206
49	0x3f78a4cb	0.97126454
50	0x3f762c3f	0.96161264
51	0x3f707cf2	0.9394065
52	0x3f770880	0.96497345
53	0x3f698288	0.912148
54	0x3f7e7bf5	0.99407893
55	0x3f622e59	0.8835197
56	0x3f79aa8a	0.97525847
57	0x3f7accd1	0.97968775
58	0x3f75de8f	0.9604272
59	0x3f64951e	0.89290035
60	0x3f5c2406	0.8599247
61	0x3f7e2ce6	0.9928726
62	0x3f46275e	0.7740382
63	0x3f744864	0.9542296

block1.bn2.bias f4 [64]
0	0x3df474fe	0.11936377
1	0x3cfae084	0.030624636
2	0xbc98e7d5	-0.018665234
3	0x3c413e70	0.011794671
4	0xbd183e6b	-0.0371689
5	0x3d36c269	0.044618998
6	0x3d2367df	0.03989398
7	0xbda835c8	-0.08213383
8	0x3def319f	0.11679386
9	0x3dadbbdc	0.08483097
10	0xbe128df5	-0.14311965
11	0xbd0e60d6	-0.03476032
12	0x3d6d7181	0.057969574
13	0x3dbb3024	0.091400415
14	0x3cd9a3e0	0.0265674
15	0x3c89549c	0.016763978
16	0xbd6e96d5	-0.058249313
17	0xbd00f05a	-0.031479217
18	0x3c111ef5	0.008857478
19	0x3caabc14	0.020841636
20	0x3d6645ec	0.056219026
21	0xbded8503	-0.115976356
22	0x3da3c196	0.07995908
23	0x3db7c5dd	0.08973286
24	0x3db7ecc1	0.08980704
25	0xbcb1fadc	-0.021726064
26	0x3d48e76e	0.049048834
27	0x3bff04e0	0.0077825636
28	0x3dc22474	0.09479609
29	0x3c0cf299	0.008602762
30	0x3da8611f	0.082216494
31	0xbc755c51	-0.014975623
32	0xbcdd6a19	-0.02702813
33	0xbc8ca820	-0.017170012
34	0x3de51f13	0.111875676
35	0x3c459715	0.012059947
36	0x3dcd35b6	0.1002001
37	0xbd4b0760	-0.04956758
38	0x3c60e1d7	0.013725719
39	0x3d9b6c11	0.075889714
40	0x3dbe01ba	0.09277673
41	0x3d76778c	0.060172603
42	0xbc96a633	-0.018389797
43	0x3d1ca8e0	0.03824699
44	0x3c20c9f2	0.0098137725
45	0x3dc398d4	0.09550634
46	0x3d962694	0.07331577
47	0xbd743e06	-0.059629463
48	0x3d6bfca8	0.057614
49	0xbbc021a8	-0.005863387
50	0x3cd542bc	0.026032798
51	0xbd114a50	-0.03547126
52	0xbce507af	-0.027957765
53	0xbd37f982	-0.044915684
54	0xbc915cac	-0.017744385
55	0xbd76795d	-0.060174335
56	0x3c383912	0.011244075
57	0x3b91be65	0.0044477456
58	0xbcb0d80a	-0.02158739
59	0x3d941389	0.072302885
60	0xbdb75b35	-0.08952943
61	0x3be139e9	0.0068733585
62	0xbe129b62	-0.14317086
63	0xbced137c	-0.028939955

block1.bn2.running_mean f4 [64]
0	0xbe025be7	-0.1273037
1	0xbce6cbc3	-0.028173333
2	0x3e10da4c	0.14145774
3	0x3d589f9c	0.05288659
4	0xbce40022	-0.027832095
5	0x3d95de9b	0.07317849
6	0xbd6765ef	-0.056493696
7	0x3e0d0e08	0.13774884
8	0xbd8897db	-0.06669589
9	0x3dc2c302	0.09509851
10	0x3c543bd9	0.012953722
11	0x3d9493c1	0.07254744
12	0xbd674bff	-0.05646896
13	0xbdabafe7	-0.0838316
14	0xbc203ab7	-0.009779624
15	0xbd0e4b2a	-0.03473965
16	0xbe06f05d	-0.13177629
17	0x3dc4dfdb	0.096130095
18	0x3dc716c2	0.097211376
19	0x3d8f7561	0.0700481
20	0xbd7cb62b	-0.061697166
21	0xbdae34a2	-0.08506133
22	0xbc32b5d8	-0.010907613
23	0xbdf1fbbe	-0.11815594
24	0x3e26591a	0.16244927
25	0xbc671bb2	-0.014105724
26	0xbcb31b65	-0.021863649
27	0x3da89fcf	0.08233606
28	0x3d364d80	0.044507504
29	0x3d97e36e	0.07416426
30	0xbadade7c	-0.0016698386
31	0xbd3885e4	-0.045049563
32	0xbcf9c8f9	-0.030491339
33	0xbcdd87a3	-0.027042216
34	0x3de7869f	0.11304974
35	0x3d076e97	0.03306445
36	0x3dc87898	0.097886264
37	0x3e401180	0.18756676
38	0xbdae3a8d	-0.085072614
39	0x3d7425b6	0.059606276
40	0xbdcc7294	-0.099827915
41	0x3ddccabb	0.10780855
42	0x3e05bfb8	0.13061416
43	0xbe53e40b	-0.2069246
44	0xbdea24f6	-0.11432831
45	0xbd6bdc12	-0.057582922
46	0xbd73fedc	-0.059569225
47	0x3d77b813	0.06047828
48	0xbb50db77	-0.0031869092
49	0xbdb35adf	-0.08757567
50	0x3e13a581	0.14418603
51	0xbd72d7fe	-0.059288017
52	0xbd2d7152	-0.0423444
53	0xbd78272e	-0.06058424
54	0xbd2abf6f	-0.04168647
55	0x3d16abe2	0.036785014
56	0xbdf9413c	-0.121706456
57	0xbd964de9	-0.07339079
58	0x3dd8546a	0.10562976
59	0x3e099dfa	0.1343917
60	0xbe107f2c	-0.14111012
61	0x3db11d97	0.08648222
62	0x3d432a15	0.047647554
63	0x3d13884e	0.036018662

block1.bn2.running_var f4 [64]
0	0x3ef8add7	0.4857013
1	0x3e04304c	0.12909049
2	0x3e8e3b84	0.27779782
3	0x3e8ac9da	0.27107126
4	0x3e1461c9	0.14490427
5	0x3e8ccd12	0.27500206
6	0x3e20c2c3	0.15699296
7	0x3e1d080d	0.15335102
8	0x3eed6f6d	0.46374074
9	0x3d154cd7	0.036450233
10	0x3ee15ab7	0.44014522
11	0x3e3468d7	0.17618118
12	0x3e383957	0.17990623
13	0x3e1b774a	0.15182224
14	0x3df6497b	0.12025734
15	0x3e48b89e	0.19601676
16	0x3df31452	0.1186911
17	0x3eae86dc	0.34087265
18	0x3de33072	0.110932246
19	0x3dc3c80f	0.095596425
20	0x3e295943	0.16537957
21	0x3e9dba53	0.30806217
22	0x3dfaa5ec	0.12238678
23	0x3e90c5f3	0.28276023
24	0x3e5b648a	0.21425071
25	0x3dac84a0	0.08423734
26	0x3e3cfa2f	0.18454812
27	0x3d194eac	0.037428543
28	0x3d3ea48f	0.046543654
29	0x3ebcf3b8	0.36904693
30	0x3e195433	0.14973526
31	0x3e9b14cc	0.30289304
32	0x3e5740a8	0.21020758
33	0x3e28264b	0.16420858
34	0x3e210ab9	0.15726747
35	0x3e598cb0	0.21245074
36	0x3d7c043b	0.061527472
37	0x3ddd3690	0.108014226
38	0x3e3232e8	0.17402232
39	0x3e815e88	0.25267434
40	0x3d8be7f3	0.0683135
41	0x3e87328c	0.26405752
42	0x3e4fd425	0.2029577
43	0x3dd3d9a7	0.10344248
44	0x3ec0ecd2	0.3768068
45	0x3f0e6183	0.5561754
46	0x3e2e1a06	0.17002115
47	0x3d8fb48d	0.07016859
48	0x3e2af138	0.1669358
49	0x3dc342cc	0.09534225
50	0x3d9167eb	0.07099899
51	0x3e031dc8	0.1280433
52	0x3e798d73	0.24370365
53	0x3d44e03c	0.04806541
54	0x3dcc3a5d	0.099720694
55	0x3e30d312	0.17268017
56	0x3e458ff2	0.19293192
57	0x3ec51a29	0.3849652
58	0x3e819cc8	0.25314927
59	0x3e2b39b6	0.16721234
60	0x3e0e1745	0.13876064
61	0x3ebf3de9	0.3735192
62	0x3e5c6ba3	0.21525435
63	0x3dce96bf	0.10087346

block2.dw.weight f4 [64, 1, 3, 3]
0	0xbbb14cda	-0.0054107727
1	0x3e3987be	0.18118188
2	0x3e3a6866	0.18203887
3	0x3e265681	0.16243936
4	0xbe0b3286	-0.13593492
5	0xbd78a309	-0.060702357
6	0xbe6e7bcd	-0.23289414
7	0xbdda0c74	-0.106469065
8	0xbd171472	-0.036884733
9	0xbde5d4da	-0.11222239
10	0xbe8f95b0	-0.2804389
11	0x3e2eede1	0.17082931
12	0x3e216c56	0.15763983
13	0xbe7eb01f	-0.24871872
14	0x3e3fcfcd	0.18731613
15	0xbe34a8ac	-0.17642468
16	0xbe04eb11	-0.12980296
17	0xbdfcf988	-0.12352282
18	0xbde240b1	-0.11047495
19	0x3ea95e9b	0.3307999
20	0x3eab1d2f	0.33420703
21	0x3e8eebc8	0.27914262
22	0xbde036d1	-0.109479554
23	0xbdc8cfa7	-0.098052315
24	0xbe54a305	-0.20765312
25	0x3e65e1a6	0.2244936
26	0x3e3647dc	0.1780085
27	0xbdcbb1a8	-0.099459946
28	0xbeaa9fb3	-0.33324966
29	0x3e88c10a	0.26709777
30	0x3d0057a8	0.031333596
31	0x3e1542ee	0.14576313
32	0x3cd9556d	0.026529992
33	0xbe0ebaf5	-0.13938506
34	0x3d638faa	0.05555693
35	0xbe538fdc	-0.20660347
36	0x3d338ddb	0.043836456
37	0xbe2a94a1	-0.1665826
38	0xbe60cd54	-0.21953326
39	0x3ea5c1ac	0.32374322
40	0x3ddf9edd	0.10918973
41	0xbcaf1669	-0.02137299
42	0xbe9263fe	-0.28591913
43	0xbda10104	-0.07861522
44	0xbdadf9df	-0.08494925
45	0xbe0a9565	-0.13533552
46	0xbe0a0614	-0.13478881
47	0x3cbe610d	0.023239637
48	0xbdb316a6	-0.08744554
49	0x3d569212	0.052385397
50	0x3d8b3297	0.067967586
51	0xbd9de079	-0.077088304
52	0xbe85779b	-0.26067814
53	0x3e91db94	0.28487837
54	0xbe2a55a4	-0.16634232
55	0xbe85bbaa	-0.2611974
56	0x3e278d71	0.1636255
57	0xbdd7b559	-0.10532636
58	0xbea934e3	-0.33048162
59	0xbe55fc1d	-0.20896955
60	0xbd4c0822	-0.049812444
61	0x3e483a60	0.19553518
62	0x3e8f2c0a	0.27963287
63	0xbd35b9e5	-0.044366736
64	0x3e8a959a	0.27067262
65	0xbe045bdb	-0.12925665
66	0x3e70c10a	0.23511139
67	0xbdfbb74a	-0.12290819
68	0x3e2267e2	0.1585994
69	0xbe2bb125	-0.16766794
70	0x3e8c575e	0.27410406
71	0x3e250c3f	0.16117953
72	0xbe9318cc	-0.28729856
73	0x3e6ffdad	0.23436613
74	0xbe61fa6f	-0.22068189
75	0x3dd69bdf	0.10478949
76	0xbe20ce64	-0.15703732
77	0x3e05d05d	0.13067766
78	0xbe03e8e0	-0.12881804
79	0x3e44a019	0.19201697
80	0xbd886562	-0.06659962
81	0x3e3ad7ea	0.18246427
82	0xbe66c0a0	-0.22534418
83	0xbdbaa8ea	-0.09114249
84	0xbeb9df96	-0.36303395
85	0xbea625ba	-0.32450658
86	0xbd74fc3a	-0.059810854
87	0xbe505c47	-0.20347701
88	0x3dd7aebc	0.10531375
89	0x3e8e9e71	0.27855256
90	0x3dc83e77	0.09777539
91	0x3eb4d4ad	0.3531851
92	0x3e9500a5	0.29102054
93	0x3e952458	0.2912929
94	0x3e68a8e7	0.22720681
95	0xbdfb0e3b	-0.122585736
96	0x3dd3719c	0.10324404
97	0xbd900afc	-0.07033345
98	0x3e32cdda	0.17461339
99	0xbe5168ad	-0.20450087
100	0xbc4dc4a5	-0.012559091
101	0x3e86d4e8	0.2633431
102	0x3eac6361	0.3366957
103	0x3e79abcc	0.24381942
104	0xbd7968e8	-0.060891062
105	0xbe09f965	-0.13474043
106	0x3dc0ae6c	0.09408268
107	0xbe41f27e	-0.1894016
108	0xbe7be7a6	-0.24600086
109	0xbd61445f	-0.054996844
110	0xbd8d2efe	-0.06893729
111	0x3e2d5ebf	0.16930674
112	0xbe6dfd91	-0.23241259
113	0x3e15a433	0.14613418
114	0xbe1883e9	-0.1489407
115	0x3e7e7222	0.24848226
116	0xbe443cde	-0.19163844
117	0x3e69ae39	0.22820367
118	0xbe5d89cc	-0.21634597
119	0xbbc79766	-0.006091046
120	0x3e491cee	0.19639942
121	0xbe112bf6	-0.14176926
122	0x3eb90d55	0.36142984
123	0x3e772c21	0.24137928
124	0x3e3f2165	0.18665083
125	0xbe75f5e1	-0.24019577
126	0xbca2504f	-0.019813685
127	0x3e0a6314	0.13514358
128	0x3bdbe1f5	0.006710286
129	0xbe9483d6	-0.29006833
130	0xbdde20cb	-0.108460985
131	0x3e900358	0.2812755
132	0xbe2acbac	-0.16679257
133	0x3dfcc8a1	0.123429544
134	0x3e451677	0.19246851
135	0x3de05d08	0.10955244
136	0xbe42ad47	-0.19011413
137	0xbdcf6cac	-0.101281494
138	0xbe7ff0c8	-0.24994195
139	0xbeb2d449	-0.34927586
140	0xbe99aa83	-0.30012903
141	0xbea02be6	-0.31283492
142	0xbcfb7cd6	-0.030699175
143	0x3db0ca9d	0.086323954
144	0x3e7b5bf6	0.24546799
145	0xbea8278e	-0.32842678
146	0xbe204687	-0.15651904
147	0xbe260112	-0.16211346
148	0x3e16c1a5	0.14722307
149	0xbe46a4ac	-0.19398755
150	0x3d0b740a	0.03404621
151	0x3d2f74a7	0.042835858
152	0xbe907fa3	-0.2822238
153	0x3e959995	0.29218736
154	0xbe921304	-0.28530133
155	0xbe6971b8	-0.22797287
156	0xbe327442	-0.17427161
157	0xbebb9926	-0.3664028
158	0xbe055dc9	-0.13024057
159	0xbea479b4	-0.32124102
160	0xbbc3d900	-0.005976796
161	0x3e2708b0	0.16311908
162	0xbe59454d	-0.21217842
163	0x3e276be9	0.16349758
164	0xbe33f912	-0.17575482
165	0x3e6592c1	0.22419263
166	0xbeb00352	-0.34377533
167	0xbe73a0e2	-0.2379184
168	0xbd282272	-0.041048475
169	0x3d8f7f00	0.07006645
170	0xbe6e2d8c	-0.23259562
171	0x3e8f519b	0.27991948
172	0x3e704d4a	0.23466983
173	0x3ea81c89	0.3283427
174	0x3e849222	0.2589274
175	0x3e91640b	0.2839664
176	0x3d5848fe	0.052803986
177	0x3e348ae8	0.17631114
178	0x3d80cdbb	0.0628924
179	0xbd2208d4	-0.0395592
180	0x3a67c97e	0.00088419754
181	0xbe452c54	-0.19255191
182	0xbe34d980	-0.17661095
183	0x3c3e340a	0.011609087
184	0x3e2e5164	0.17023236
185	0xbea78341	-0.32717326
186	0xbe435082	-0.1907368
187	0xbd1dbd49	-0.038510595
188	0x3e33f4cb	0.1757385
189	0xbe3b0203	-0.18262486
190	0xbe7197d8	-0.2359308
191	0x3e7f8627	0.24953519
192	0x3d94bee3	0.07262971
193	0xbeb1b63c	-0.34709346
194	0xbe7b30a9	-0.24530281
195	0x3e92761a	0.2860573
196	0xbe7122ee	-0.23548481
197	0x3e86b6a2	0.26311213
198	0x3db47d80	0.08813
199	0x3e2968f5	0.16543944
200	0xbd44a93d	-0.04801296
201	0x3e96fcf4	0.29489863
202	0x3ea328d1	0.31867078
203	0xbda5a4f8	-0.08088106
204	0x3dff854d	0.12476597
205	0xbe81294a	-0.25226814
206	0xbe88d041	-0.26721385
207	0x3e434735	0.19070132
208	0x3d526c7c	0.05137299
209	0x3eb2ada5	0.34898105
210	0x3eaacdbb	0.33360085
211	0x3d9356fe	0.07194327
212	0xbe96e56b	-0.29471907
213	0xbe222291	-0.15833499
214	0x3e3b451b	0.1828808
215	0x3df70428	0.120613396
216	0xbea40383	-0.3203393
217	0xbe8374e6	-0.25675124
218	0x3ce87ed3	0.028380787
219	0xbd92ffb0	-0.07177675
220	0xbc92fb08	-0.017941967
221	0x3e88f55c	0.26749694
222	0x3d735741	0.059409384
223	0x3e6a401f	0.22876023
224	0xbe034cf0	-0.12822318
225	0x3e1829b1	0.14859654
226	0x3e17d898	0.14828718
227	0xbe534540	-0.20631886
228	0x3e147290	0.14496827
229	0x3df23620	0.1182673
230	0xbe66657c	-0.2249965
231	0x3e7c5e26	0.2464529
232	0xbd470f10	-0.04859835
233	0xbdc8735a	-0.097876266
234	0x3ddcd3e4	0.107826024
235	0x3e7287a8	0.23684561
236	0xbd2f276a	-0.042762198
237	0x3e014f3d	0.12627883
238	0x3d99deb5	0.07513181
239	0x3e28bc8e	0.16478178
240	0x3e17b66b	0.1481568
241	0xbe6f9f7d	-0.23400684
242	0x3d82b079	0.06381316
243	0xbe357de8	-0.1772381
244	0xbe0985e7	-0.13429986
245	0x3d352f3c	0.0442345
246	0xbe9d86c8	-0.30766892
247	0xbe88e0bd	-0.26733962
248	0x3e53614e	0.20642588
249	0x3e643514	0.22285873
250	0xbe409616	-0.18807253
251	0xbaea64ab	-0.0017882785
252	0xbe4580d5	-0.19287427
253	0x3dabf438	0.083961904
254	0x3de6e4d9	0.11274118
255	0xbe848d89	-0.25889233

block2.bn1.weight f4 [64]
0	0x3f74a675	0.95566493
1	0x3f83c52f	1.0294551
2	0x3f83b0ac	1.0288291
3	0x3f7ae4cd	0.9800537
4	0x3f7e7b6c	0.99407077
5	0x3f7ad862	0.97986424
6	0x3f801063	1.0005001
7	0x3f8096e7	1.0046052
8	0x3f813fc5	1.0097586
9	0x3f800620	1.0001869
10	0x3f82af35	1.0209719
11	0x3f7ceb15	0.98796207
12	0x3f7e28a1	0.99280745
13	0x3f76056b	0.9610202
14	0x3f79f094	0.9763272
15	0x3f7fd046	0.99927175
16	0x3f8176ec	1.0114417
17	0x3f818cf0	1.0121136
18	0x3f7f4a36	0.9972261
19	0x3f7d0a46	0.988438
20	0x3f81f064	1.0151486
21	0x3f805820	1.0026894
22	0x3f7a50ca	0.97779524
23	0x3f7ca28b	0.9868552
24	0x3f7719ac	0.9652355
25	0x3f720d63	0.94551677
26	0x3f8334a6	1.0250442
27	0x3f776891	0.9664393
28	0x3f7c8be5	0.9865096
29	0x3f81601a	1.0107453
30	0x3f80b733	1.0055908
31	0x3f7f3bec	0.9970081
32	0x3f7edf8a	0.99559844
33	0x3f76b3a0	0.96367836
34	0x3f80d2b8	1.0064306
35	0x3f81b5d1	1.0133611
36	0x3f7bf189	0.9841543
37	0x3f80b50c	1.0055251
38	0x3f75f696	0.96079385
39	0x3f7c280b	0.984986
40	0x3f75d857	0.96033233
41	0x3f725072	0.94654
42	0x3f7681f2	0.9629203
43	0x3f81982e	1.0124567
44	0x3f7db6a1	0.99106795
45	0x3f7feb9c	0.99968886
46	0x3f8100c6	1.0078361
47	0x3f7b82e2	0.98246586
48	0x3f81dd2c	1.0145621
49	0x3f77da04	0.9681704
50	0x3f7d8d45	0.99043685
51	0x3f77d784	0.96813226
52	0x3f83ccdf	1.0296897
53	0x3f7a6c92	0.97821915
54	0x3f804d56	1.0023601
55	0x3f7f1995	0.9964841
56	0x3f7a6489	0.97809654
57	0x3f7b613c	0.9819524
58	0x3f7daa93	0.990884
59	0x3f7fb305	0.9988254
60	0x3f7d54af	0.9895734
61	0x3f829a38	1.0203314
62	0x3f7f4c20	0.9972553
63	0x3f7ed4fc	0.9954374

block2.bn1.bias f4 [64]
0	0xbc9f6531	-0.019457432
1	0x3cd22bc1	0.02565563
2	0x3d181506	0.037129425
3	0xbc0d8173	-0.00863682
4	0x3c0fa67c	0.00876772
5	0xbc316e50	-0.010829523
6	0x3c604998	0.013689421
7	0x3bfee063	0.007778214
8	0x3c2f76cd	0.010709477
9	0x3c9a5a5c	0.018841915
10	0x3c861259	0.01636617
11	0xbba706bb	-0.005097238
12	0xbc089aec	-0.0083377175
13	0xbd0f068b	-0.03491835
14	0xbca868a8	-0.020557716
15	0x3b27b2c8	0.002558874
16	0x3aaa4ee6	0.0012993484
17	0x3c91abbc	0.017782085
18	0xbc283dac	-0.01026861
19	0xbcaadfeb	-0.020858726
20	0x3cb52aec	0.022115193
21	0x3c67543c	0.014119204
22	0x3d036848	0.032081872
23	0xbc2ef5d3	-0.010678726
24	0xbc859d54	-0.016310371
25	0xbccbedca	-0.02489366
26	0x3c971338	0.018441781
27	0xbc1f3698	-0.009717606
28	0xbc91a56e	-0.017779078
29	0x3c9996c2	0.018748645
30	0x3b333839	0.0027346744
31	0xbaaa2d39	-0.0012983448
32	0x3cada0e8	0.02119489
33	0x3c04276c	0.0080660395
34	0x3c9322b0	0.017960876
35	0x3b0dd2f0	0.002164062
36	0x3b5b9e2e	0.003351103
37	0xbb8376c7	-0.004011962
38	0xbb985c13	-0.004649648
39	0xbbb03680	-0.0053775907
40	0xbd036f59	-0.03208861
41	0xbd1f75d1	-0.038930718
42	0xbd07aadd	-0.033121932
43	0x3c07848a	0.008271346
44	0xbb383643	-0.0028108514
45	0x3c941f6c	0.01808139
46	0x3cb1effd	0.02172088
47	0xbbbbb9f6	-0.0057289554
48	0x3c9e1f37	0.019301994
49	0xbc9535e6	-0.018214177
50	0x3a93c288	0.0011273185
51	0xbc2692b2	-0.010166811
52	0x3cf5e6d3	0.030017292
53	0xbc93ab0c	-0.018025897
54	0xbb2d3f57	-0.0026435459
55	0x3d5ef040	0.05442834
56	0xbc48e44c	-0.0122614615
57	0x3bf1caa4	0.007378893
58	0xbc4c9109	-0.012485751
59	0xbba74a68	-0.0051053055
60	0x3ca82939	0.020527469
61	0x3be291fb	0.006914375
62	0x3bdf9aba	0.0068238648
63	0x3caaa164	0.02082891

block2.bn1.running_mean f4 [64]
0	0xbbc2da21	-0.005946413
1	0xbc90923b	-0.017647853
2	0xbc81cbc9	-0.015844243
3	0xbb3b0103	-0.0028534539
4	0x3c5f3143	0.013622585
5	0xbc420e60	-0.011844248
6	0xbca02894	-0.0195506
7	0xbd520dc8	-0.051282674
8	0xbcb7a484	-0.022417314
9	0xbd6e14a9	-0.05812517
10	0xbe4288e5	-0.18997534
11	0xbc3f77bb	-0.011686261
12	0xbcb030ef	-0.021507708
13	0x3d5e24d6	0.05423435
14	0x3b926465	0.0044675344
15	0xbcb55511	-0.02213529
16	0x3d218a5e	0.039438598
17	0x3d06e6c7	0.03293493
18	0xbba0cbfc	-0.0049071293
19	0x3d13fc91	0.036129538
20	0xbcfed71b	-0.03110843
21	0x3d3402a6	0.04394784
22	0x3cdedd20	0.02720505
23	0x3d985c14	0.074394375
24	0xbc98eee8	-0.018668607
25	0xbbd46e82	-0.0064829
26	0x3cfc3b34	0.030789949
27	0xbb6cf86b	-0.003615881
28	0xbd589490	-0.052876055
29	0xbbc9dade	-0.006160124
30	0xbce27ae2	-0.027646486
31	0x3bf533c9	0.00748298
32	0xbc9b759e	-0.018976983
33	0x3ba90a87	0.0051587257
34	0x3d01b97d	0.031671036
35	0x3bf4ea8a	0.0074742483
36	0xbe0ce2a6	-0.13758335
37	0xbd9f349a	-0.07773705
38	0xbaac1dd9	-0.0013131454
39	0xbde1f8d5	-0.11033789
40	0x39b969e5	0.00035364847
41	0x3c4338d0	0.011915401
42	0xbb670f2a	-0.0035256841
43	0xbd2c25ae	-0.04202812
44	0x3c06d882	0.00823033
45	0x3c9bab0e	0.019002464
46	0x3d4322ac	0.047640488
47	0xbd568c5b	-0.052379947
48	0xbd84267a	-0.06452651
49	0xbaee0669	-0.0018159869
50	0xbcfdf657	-0.031001253
51	0xbc600d68	-0.013675071
52	0x3c8e32b3	0.01735816
53	0xbd008848	-0.031379968
54	0x3c244c65	0.0100279795
55	0x3ca7bc68	0.020475581
56	0xbb9e80ae	-0.004837117
57	0x3b116db5	0.0022190635
58	0x3ba5cd3e	0.005059867
59	0xbd4f79fc	-0.050653443
60	0x3d146daa	0.036237396
61	0xbb273baa	-0.002551774
62	0x3d005035	0.03132649
63	0xbc67a413	-0.014138239

block2.bn1.running_var f4 [64]
0	0x3c503929	0.012708941
1	0x3e9031db	0.28163037
2	0x3f169954	0.5882771
3	0x3d81e41a	0.06342335
4	0x3e02f130	0.12787318
5	0x3d903dd6	0.07043044
6	0x3e727a05	0.2367936
7	0x3e8956dc	0.2682408
8	0x3ce80587	0.028322948
9	0x3ec384a4	0.38187134
10	0x3f875a93	1.0574516
11	0x3de47847	0.111557536
12	0x3de9d024	0.11416653
13	0x3e776885	0.24160965
14	0x3e3c0036	0.18359455
15	0x3fcc511f	1.5962256
16	0x3eac7d75	0.33689466
17	0x3f7cd07e	0.98755634
18	0x3f0a8dcc	0.54122615
19	0x40082d57	2.1277673
20	0x3e80a844	0.25128376
21	0x3de23eed	0.110471584
22	0x3e1515dc	0.1455912
23	0x3ef273cd	0.47353974
24	0x3d809a28	0.06279403
25	0x3e2a8c28	0.16655028
26	0x3ea66cdb	0.32504925
27	0x3eae237e	0.34011453
28	0x3e56b1ee	0.20966312
29	0x3ee2cec7	0.44298384
30	0x3db78df3	0.089626215
31	0x3e65a837	0.2242745
32	0x3ee620c2	0.44946867
33	0x3e0989af	0.13431428
34	0x3d8f37cd	0.06993065
35	0x3eb6caa3	0.35701475
36	0x3f82c315	1.0215784
37	0x3fdb456a	1.7130558
38	0x3cc484a0	0.023989022
39	0x3fc49be8	1.5360079
40	0x3d1cb5df	0.038259383
41	0x3d7d3075	0.06181379
42	0x3d2a9bbe	0.041652434
43	0x3f5dfa90	0.86710453
44	0x3f11a98c	0.56899333
45	0x3d163efd	0.036681164
46	0x3e98c0cc	0.29834592
47	0x3f01923d	0.50613767
48	0x3f67c989	0.90541893
49	0x3de1bde3	0.11022546
50	0x3f69c847	0.91321224
51	0x3e38206c	0.17981118
52	0x3ec3844a	0.38186866
53	0x3eb06704	0.34453595
54	0x3ea2210a	0.31665832
55	0x3de30b41	0.11086131
56	0x3e3d84aa	0.18507639
57	0x3e71b0d1	0.23602606
58	0x3d6f590b	0.058434527
59	0x3ecaff15	0.39647737
60	0x3e0800db	0.13281576
61	0x3e2f0f10	0.1709559
62	0x3d3c65e3	0.045995604
63	0x3e87cd40	0.2652378

block2.pw.weight f4 [128, 64, 1, 1]
0	0xbdc8f0d3	-0.098115586
1	0x3e089823	0.13339286
2	0x3d76561f	0.060140725
3	0xbdbe6e93	-0.09298434
4	0x3e0acff2	0.13555887
5	0x3c16afcb	0.009197186
6	0xbe068f2d	-0.13140555
7	0x3cc995fe	0.024607655
8	0x3b3356b2	0.0027364907
9	0xbdbd07b1	-0.09229983
10	0xbd189aa3	-0.037256848
11	0x3cc5f698	0.024165437
12	0x3db14dc0	0.08657408
13	0xbd00230d	-0.031283427
14	0xbe03848a	-0.12843528
15	0xbdd5dea0	-0.10442853
16	0x3dad6edc	0.084684104
17	0xbad39ba8	-0.0016144412
18	0x3cb1e14f	0.02171388
19	0xbcbf6fd4	-0.023368753
20	0x3c85b777	0.016322834
21	0x3d8ad6bd	0.06779239
22	0x3dcd67d3	0.100295685
23	0xbdb25b6e	-0.08708845
24	0x3d3e8f8c	0.046523616
25	0x3d9ff82f	0.07811009
26	0xbdb9c8f8	-0.09071535
27	0x3c9c9d36	0.019117933
28	0xbd09c40a	-0.033634223
29	0x3c8f9f1f	0.01753193
30	0xbdd15a2d	-0.10222278
31	0xbda2a77f	-0.079421036
32	0x3ca62528	0.02028139
33	0x3dbc2653	0.09186997
34	0x3dbf5e72	0.09344186
35	0xbd1e4ded	-0.038648535
36	0xbd127455	-0.035755474
37	0x3db89466	0.0901268
38	0xbdcdce5c	-0.100491256
39	0x3cbf0214	0.02331642
40	0x3c3db821	0.011579544
41	0x3d341b6a	0.043971457
42	0x3c2d001f	0.010559111
43	0x3dc8fdea	0.09814055
44	0xbdd0b171	-0.10190094
45	0xbd53613b	-0.051606398
46	0x3c247569	0.010037758
47	0x3dac2f01	0.08407403
48	0x3db9a37b	0.090643845
49	0xbc8f3e49	-0.017485755
50	0xbd1d083e	-0.03833794
51	0xbdff4437	-0.12464183
52	0x3d964050	0.073364854
53	0x3d337c41	0.04381967
54	0x3d555755	0.05208524
55	0xbdd56a35	-0.10420648
56	0xbd572c06	-0.05253222
57	0x3d850924	0.06495884
58	0x3d6a73de	0.057239406
59	0x3c5a2e83	0.013316753
60	0x3d0eeb29	0.034892235
61	0x3ca9bfba	0.020721305
62	0xbd5144fb	-0.051091176
63	0xbddbdc6e	-0.10735403
64	0x3db52eb1	0.08846796
65	0xbd0e5881	-0.034752373
66	0xbd7d0c24	-0.061779156
67	0x3d387178	0.045030087
68	0xbd0ed6e6	-0.034872912
69	0x3d8c570e	0.06852542
70	0xbded0a3e	-0.11574219
71	0x3c93cc81	0.018041851
72	0x3dbc4a42	0.09193851
73	0xbc172558	-0.009225212
74	0x3b259cfd	0.0025270574
75	0x3d351369	0.044207964
76	0x3da1974a	0.07890184
77	0xbc8d5478	-0.017252192
78	0x3d3f738c	0.046741053
79	0xbd19b7cf	-0.03752881
80	0xbddf87e4	-0.10914591
81	0x3d800909	0.06251723
82	0xbca0f2c9	-0.019647019
83	0xbd0c29b8	-0.034219474
84	0x3cb0251f	0.021502076
85	0xbd81c3c5	-0.06336168
86	0x3dd35d99	0.10320587
87	0xbdaf5626	-0.085613534
88	0x3c874bbe	0.016515609
89	0xbdd5b13d	-0.10434196
90	0xbd928ee2	-0.07156159
91	0x3ddbcfbd	0.10732982
92	0x3dcc5614	0.099773556
93	0xbcd02c4b	-0.025411746
94	0xbda44e5d	-0.08022759
95	0x3db7303d	0.089447476
96	0x3c8c013a	0.017090429
97	0x3d8f8d2d	0.07009349
98	0xbd7a490b	-0.061104815
99	0x3d53c5f1	0.051702444
100	0x3c4c0571	0.012452469
101	0x3bdb6a66	0.0066960333
102	0x3da59d5a	0.08086653
103	0x3d9e27c4	0.077224284
104	0x3d8a17cb	0.067428194
105	0xbdcc200c	-0.0996705
106	0x3c42e890	0.0118962675
107	0x3d92db50	0.07170737
108	0x3d249d16	0.04018887
109	0x3d5e54dd	0.05428015
110	0x3d99e4e7	0.07514363
111	0x3dc2f581	0.095194824
112	0x3d2a6a57	0.04160532
113	0xbdaee64b	-0.08540019
114	0x3c460139	0.012085252
115	0x3d505580	0.05086279
116	0xbd3e01e2	-0.046388514
117	0xbde69c34	-0.11260262
118	0x3c451e23	0.012031111
119	0x3ccf668e	0.025317457
120	0xbd88a66e	-0.06672369
121	0xbca362de	-0.019944604
122	0x3d66b80e	0.056327872
123	0xbcb974ed	-0.022638762
124	0x3d114376	0.035464726
125	0x3a8bdc2a	0.0010670472
126	0xbdb9fae6	-0.09081058
127	0xbd5b2f4f	-0.053511914
128	0x3c0f8449	0.008759567
129	0x3d08eb12	0.033427306
130	0x3d2fc242	0.042909868
131	0x3d9263b7	0.07147925
132	0xbd945f9d	-0.07244799
133	0xbd1159e2	-0.03548611
134	0x3b38eceb	0.0028217386
135	0x3ddb4eb1	0.107083686
136	0x3d0905da	0.033452846
137	0xbcdf92c3	-0.027291661
138	0x3d51296f	0.051064905
139	0xbc853177	-0.016258938
140	0x3db90fd3	0.09036221
141	0x3d8516aa	0.064984635
142	0xbd1ef232	-0.038805194
143	0xbbd15427	-0.0063882056
144	0xbdc2394b	-0.09483584
145	0xbd00f5ad	-0.031484295
146	0xbca1f7f6	-0.019771557
147	0x3cf0699f	0.029347239
148	0x3d56ca64	0.05243911
149	0xbd801841	-0.06254626
150	0xbe0418aa	-0.12900034
151	0xbd098d81	-0.033582214
152	0x3d2183b3	0.03943224
153	0xbcbc97ff	-0.023021696
154	0xbd869f46	-0.06573348
155	0xb988fa2a	-0.00026126328
156	0x3dd57325	0.10422353
157	0xbddb63b4	-0.10712376
158	0x3dceb1be	0.100924954
159	0xbd288edc	-0.041151866
160	0xbdc77f5f	-0.09741091
161	0x3dc8640f	0.0978471
162	0x3df94da3	0.12173011
163	0x3d11eebf	0.035628077
164	0xbe03ebc4	-0.12882906
165	0xbdaebf25	-0.08532552
166	0x3da51a18	0.080616176
167	0xbc8f99a1	-0.01752931
168	0xbdab69d0	-0.083697915
169	0x3d6da37f	0.05801725
170	0xbe0bb3aa	-0.13642755
171	0x3d170830	0.036873043
172	0xbc202852	-0.009775238
173	0xbdb6c79d	-0.08924792
174	0xbcdf3789	-0.02724816
175	0x3c8ce083	0.0171969
176	0x3e04d28e	0.12970945
177	0xbd2fbb51	-0.04290325
178	0xbe078b0e	-0.13236639
179	0xbcb606a3	-0.022219962
180	0x3e13431a	0.14381066
181	0xbc776a1d	-0.015100983
182	0xbdbcba64	-0.09215239
183	0xbd910990	-0.07081902
184	0xbd89f8eb	-0.067369305
185	0xbc79888c	-0.015230309
186	0x3d86fc16	0.0659105
187	0xbcb16876	-0.021656256
188	0xbc6e2c2c	-0.014536899
189	0xbdeddbd5	-0.11614195
190	0x3d419f2a	0.04727093
191	0x3d446a92	0.047953196
192	0x3df77fb6	0.12084906
193	0xbd51dae9	-0.05123416
194	0xba837f77	-0.0010032494
195	0x3dc5092c	0.0962089
196	0xbc4eaf52	-0.012615042
197	0xbca88bb6	-0.020574432
198	0x3b8555bf	0.0040690596
199	0xbdf19c52	-0.11797394
200	0x3d8c8ee6	0.06863193
201	0xbe0aba42	-0.13547614
202	0x3dda6f5a	0.1066577
203	0x3bf3b5fe	0.0074374666
204	0x3d05875d	0.032599796
205	0xbd84bdfa	-0.06481548
206	0xbd8f8ae2	-0.07008912
207	0xbda1f669	-0.07908327
208	0xbdeb3b0b	-0.11485871
209	0x3cf15d2d	0.029463375
210	0x3db96132	0.09051742
211	0x3dc928e5	0.09822253
212	0x3df1e7c5	0.11811785
213	0xbdac5d15	-0.084161915
214	0x3d5c2a60	0.05375135
215	0x3d14645a	0.036228515
216	0x3dbe0108	0.092775404
217	0x3da57c5b	0.080803595
218	0xbd2debd0	-0.042461216
219	0xba4f685c	-0.0007911974
220	0xbd1adf04	-0.03781034
221	0xbdb5643d	-0.088570096
222	0x3c9d2782	0.019183878
223	0x3cb8cef6	0.022559624
224	0xbd3efba2	-0.046626695
225	0x3d27d219	0.04097185
226	0x3b1c91fb	0.0023890722
227	0xbd8f7471	-0.07004631
228	0x3de4f80a	0.11180122
229	0x3d6ca932	0.057778545
230	0xbd50e745	-0.051001806
231	0x3d962613	0.07331481
232	0x3dd472e2	0.10373475
233	0xbc6b3137	-0.014354995
234	0x3d85774c	0.06516895
235	0x3a8a3d0a	0.0010546756
236	0xbcee1b35	-0.029065708
237	0xbcdfe1e3	-0.02732939
238	0xbda798d1	-0.08183444
239	0x3dc50d1a	0.096216395
240	0x3db1ad41	0.08675624
241	0x3d094e5c	0.033521995
242	0xbd0bc9da	-0.034128048
243	0x3c079d7c	0.008277293
244	0x3d8e3c3a	0.06945081
245	0xbde73d89	-0.11291034
246	0x3d98b5cf	0.07456552
247	0x3c3a2e69	0.011363604
248	0x3db45b79	0.088065095
249	0x3d526530	0.05136603
250	0x3d841757	0.06449764
251	0xbde9a980	-0.11409283
252	0xbb3b8e75	-0.0028618847
253	0x3dfa28d4	0.122148186
254	0xbd949f97	-0.07257002
255	0xbc837a15	-0.016049424
